best_model.pth (torch, 9890 bytes, 13 tensors)

network.0.weight f4 [32, 9]
00000000: 8824 59be 8231 0d3e c823 013e 7ee6 8ebe
00000010: c4a6 86be 7897 4e3e 9fc7 ab3e f724 ec3d
00000020: 5204 f13d 897d b23d 2e74 df3d 65a7 933e
00000030: e473 113e ccbf 923e cd55 853d 4247 903e
00000040: 7de1 313e e864 a4bd 9983 e6bd 7af7 dbbc
00000050: f951 a23e 9f84 02bd e94a 3dbe b892 623e
00000060: a130 c7bd 426a 3e3e de4b 883d aa03 2a3e
00000070: 3b6d e23d bc35 573d 2be4 c73d 0e28 0fbe
00000080: 4136 353e 244f 45be be20 8cbe 8e45 84be
00000090: ec29 3dbc 830d 07be 54b6 3bbe 8b6b a03e
000000a0: 2022 febd 5f67 67be 7e14 b13e 4656 4cbe
000000b0: c468 1d3d 22d4 823e 1682 9c3e 7a3c 843e
000000c0: 19fa 473e 3919 863e ea07 7a3e 7d36 543e
000000d0: a8c5 e5ba bb88 07be fc3e 003e a5cd 65be
000000e0: d67b 3f3b d475 4e3d acfb e03d a4d6 29be
000000f0: 63f6 ad3d 5fd4 0b3c 1f82 dfbe 5f9d 6ebe
00000100: 5809 1c3e d466 bdbd 7b7b 92be fa12 a6bd
00000110: aa36 d4bd 9c9a 2cb9 fe5f 753e 6561 c5bd
00000120: 9222 963e a69f 833d 0e02 893d 22d1 523e
00000130: b0e5 fd3d fcda 1c3e 6e5f 30be da12 71be
00000140: c1fc 98ba ea48 4c3d 81dd c9bc d738 5f3d
00000150: 7b79 e23d a8d6 6dbe beea 96bc 0f09 abbe
00000160: c91b 23bc 04de 2e3e 2095 403e 602e a2be
00000170: 3623 59be e2df 913d 819c a2bd 235c a33d
00000180: 7823 69be ad0b e5bd 3200 d6bd babf 383e
00000190: 4de4 82be b169 3fbd 00ab 3fbe 390c 60bd
000001a0: 2029 003e 6fe0 d13d 66d4 b6be 0cbc 693e
000001b0: 8048 81be 8486 f13c c652 2cbe 6ff0 53be
000001c0: beb1 f03c b62f 6fbe 8eba 00be 4450 87be
000001d0: 5dac 93be 9412 55be 6c8f ce3d 0c59 2a3e
000001e0: a697 7abe eb76 573e 7a49 94be debc 7ebe
000001f0: 1ddb 24bd fdee f23d 34b6 6fbe f4ed 43be
00000200: dc8f 10be ac2f 68bb 2047 e8bd 8af1 de3d
00000210: c32a b2be 3f09 5dbe 311d 283c 99ce bf3d
00000220: 2d98 4a3e ee15 3d3e cc8c 143e da35 b6be
00000230: dea3 7ebe 6610 833e 6619 aebd 4491 543e
00000240: 6d13 c0bd 4ea0 823e a6cf 89be 7297 8ebe
00000250: 0d6b 72be 3cc8 49be 64db 8ebe a233 763d
00000260: d7aa 253e 07aa a63e 98eb dabd 43d2 a03e
00000270: e933 e8be 7be5 3c3e aa8b 8c3e 8d7e 79be
00000280: 1495 19bd 3e2c cf3d 7a23 283e 256c 9cbe
00000290: 016c 093e fd28 9ebe afcc 5dbd 2c74 393e
000002a0: 8489 98be be74 073e c6be d93c 7d81 84be
000002b0: 13a3 aebe 48c5 adbe 9bb9 953c decb 92be
000002c0: 1f30 80be 0e76 423e 2d39 9a3e 27f5 893d
000002d0: 38ea 64be 2dbb db3e 569c 9e3e 222d 44bd
000002e0: da0d f53d 24e4 0ebe 38df a0be f7ba 583e
000002f0: 61a5 6a3e 4f0f 653e 09aa 55be 2a48 1b3e
00000300: 2f6a 4c3e 85d6 57bd be2f 1cbe e2e1 8e3d
00000310: b09f 393e dbd4 cfbd d10f 453e fde0 85be
00000320: 48db 0c3d 8622 83be 2f76 573e 392f 77be
00000330: d876 e3bd b370 01be bd1e 3d3b 41d0 51be
00000340: 55ba ae3c a96f 8bbe 34dd a23b c8fb 2bbc
00000350: 44e5 0bbe 673b 8abd b357 213e ae6a 81be
00000360: ffa8 2f3e 14aa ab3d b84f 553d 98bf b43e
00000370: f898 473e 8070 90be 6371 203e ec9c 8abd
00000380: e6c2 843e 5526 32be 5823 8d3d 5239 e43d
00000390: 3d3f da3d 7df3 703e 0acb 3fbe 6575 2bbe
000003a0: 9242 05be d2c7 6d3e 1f2e 1bbe e736 5ebd
000003b0: d21b a93e 0f8c d2be 8690 47be adf0 c53d
000003c0: d916 293e 3477 8c3e e346 983d 2a7b dc3c
000003d0: 9793 563e 75b8 6abe 04ef eb3c 59b1 94be
000003e0: 0e01 5bbd c88f 003b b363 ef3c c53a 253e
000003f0: ff71 873e c424 3a3e f132 abbe da97 4e3e
-0.21205342 0.13788417 0.12611306 -0.27910227 -0.26299107 0.20174968 0.33550736 0.11530488
0.11768402 0.0871535 0.109108314 0.2883865 0.14204365 0.28661954 0.06510506 0.28179365
0.17371173 -0.08027059 -0.11255569 -0.026851404 0.31703165 -0.03186476 -0.18485607 0.22126281
-0.09726072 0.18595222 0.066550955 0.1660296 0.1105599 0.05254148 0.097603165 -0.13980123
0.17696477 -0.19268471 -0.2736873 -0.25834316 -0.0115456395 -0.13188748 -0.18331271 0.3133205
-0.124088526 -0.22598027 0.34585947 -0.19954786 0.03842999 0.2555247 0.30567998 0.2582739
0.19528998 0.26191118 0.24417081 0.2072391 -0.001753022 -0.13235752 0.12524027 -0.22441728
0.00292181 0.05040534 0.109855026 -0.16585785 0.0849426 0.00853452 -0.43653962 -0.2330222
0.1523794 -0.092481285 -0.28609833 -0.08109088 -0.10361989 -0.00016460795 0.239624 -0.09637717
0.2932325 0.06426935 0.06689845 0.2058759 0.12397325 0.15317911 -0.17223904 -0.23542348
-0.0011672006 0.049874224 -0.024641754 0.054497566 0.11058327 -0.23226416 -0.01842248 -0.3340535
-0.009955355 0.1707688 0.18806887 -0.31676006 -0.21204838 0.071227804 -0.07940007 0.07976558
-0.22767437 -0.111838676 -0.10449256 0.18041888 -0.25564805 -0.046731655 -0.18717575 -0.054699156
0.12515688 0.102478854 -0.35708922 0.2282564 -0.25250626 0.029483087 -0.1682845 -0.20697187
0.02938163 -0.23358044 -0.12571165 -0.26428425 -0.2884244 -0.20807868 0.10085949 0.16635531
-0.24471912 0.21041457 -0.28962308 -0.24876735 -0.040248025 0.1186199 -0.23409349 -0.1913374
-0.14117378 -0.0035428805 -0.11341691 0.10885914 -0.3479825 -0.21585558 0.010260866 0.09365577
0.19784613 0.18465397 0.14506835 -0.3558796 -0.24867198 0.2559845 -0.08500938 0.2075854
-0.09378705 0.25512928 -0.26916236 -0.2784992 -0.23673649 -0.1970529 -0.27901757 0.060107835
0.16178451 0.32551596 -0.10689467 0.31410417 -0.45352104 0.18446915 0.27450305 -0.24364682
-0.037495688 0.101158604 0.16419783 -0.30551258 0.13420106 -0.30890647 -0.05415028 0.18110722
-0.29792416 0.13228127 0.026580226 -0.25880042 -0.3410879 -0.33939576 0.01827698 -0.28671163
-0.25036713 0.18990347 0.30121747 0.06736212 -0.22354972 0.4291624 0.3097865 -0.047894605
0.119655326 -0.13954216 -0.31420302 0.21165071 0.2291465 0.22369121 -0.20865645 0.15164247
0.19962381 -0.052694816 -0.15252587 0.069766775 0.18127322 -0.10148021 0.19244315 -0.26148215
0.03438881 -0.25612277 0.21041177 -0.24139108 -0.11106652 -0.12640648 0.0028857433 -0.20489599
0.021329084 -0.27233627 0.004970217 -0.010497041 -0.13661677 -0.06749611 0.15756111 -0.25276703
0.1715431 0.08382049 0.05207798 0.35302424 0.19491947 -0.2821083 0.15668254 -0.06768212
0.25929946 -0.17397435 0.06891507 0.111437455 0.10656593 0.23530383 -0.18729797 -0.16744001
-0.13013676 0.23220757 -0.15154313 -0.054251578 0.33029038 -0.4112248 -0.19488725 0.09665046
0.16512622 0.27434695 0.074353956 0.026914198 0.20954739 -0.22921927 0.028800495 -0.29041556
-0.053467803 0.001961695 0.029222345 0.161357 0.2645416 0.18178087 -0.33437303 0.20175114

network.0.bias f4 [32]
00000000: 51c9 12be 7a61 f93d 2eb7 7dbe 8937 a6be
00000010: a118 fbbd 07b4 0dbe aeef 9e3e c516 99be
00000020: 1aab f1bc d5f3 87be adc2 423e 1669 1e3e
00000030: 653d ec3d 3888 fcbd 0c52 073e 554e 4f3c
00000040: acb0 8dbe 5909 9abe abe5 a83c 6652 da3d
00000050: 5cb9 9b3e 7267 60be 642e b3bd 2a7d 9fbe
00000060: 83b7 78be e48e 93bb 4c5f 90be 64e7 3bbe
00000070: bf68 a6bd 8f63 9d3e 6fd6 6d3e daed 953d
-0.14334609 0.12176795 -0.24776909 -0.32464245 -0.12260557 -0.13838206 0.31042236 -0.29900184
-0.029500533 -0.26553217 0.19019575 0.15469775 0.115351476 -0.12330669 0.13214892 0.012652953
-0.27673852 -0.30085257 0.020617327 0.106602475 0.30414855 -0.21914461 -0.08749083 -0.3115018
-0.24288754 -0.004503118 -0.28197706 -0.18349987 -0.081254475 0.3074002 0.23226331 0.07320757

network.2.weight f4 [32]
00000000: d2de 763f 3d03 813f ab56 783f d516 693f
00000010: db6a 803f eb3d 853f 8279 7c3f 6e06 683f
00000020: 0641 793f 7e70 683f eaa3 713f 92c8 663f
00000030: 2cd8 6e3f df48 723f 8811 6e3f 57c5 713f
00000040: 1d4a 6e3f 6ec8 783f 0995 703f 3bfe 873f
00000050: 2ae0 743f 8ac3 6e3f 5f21 743f 478f 743f
00000060: 4ba0 703f 52fc 663f ebe8 6e3f cc81 773f
00000070: c599 713f 14c5 6c3f 002f 6a3f 6321 843f
0.96433747 1.0079113 0.97007245 0.91050464 1.003261 1.0409521 0.98622906 0.9063481
0.9736484 0.9079665 0.9439074 0.90149796 0.932986 0.9464244 0.929955 0.9444174
0.9308184 0.9718083 0.9397741 1.062446 0.9565455 0.9326712 0.9536342 0.95531124
0.9399459 0.9022876 0.93324155 0.9668243 0.9437526 0.9248822 0.91477966 1.0322689

network.2.bias f4 [32]
00000000: 0779 d93b cf71 fa3c ae4c 2bbd a7cd 383d
00000010: 40fb 22bd 4dd7 d13c 1ba4 62bd 8581 baba
00000020: 0e5f 133d dd55 083d bc0d fcbc 9f32 ad3d
00000030: 49c4 09bd d6b9 933d d4aa cdba 6b2f ad3b
00000040: 0d01 12bc e001 f83d 186f 9e3d b792 823b
00000050: e8dd 54bb 2497 8abd 6274 443d eabe dabc
00000060: 59b1 03bd b4ee 473d 6033 89bc 46ca e5bc
00000070: 5307 83bd c3ce 88bc c614 743d e2db f43c
0.006636742 0.030571846 -0.041821174 0.045118 -0.039790392 0.025615359 -0.055332284 -0.0014229274
0.035979323 0.03328501 -0.030768268 0.08456921 -0.033634458 0.0721318 -0.001569117 0.0052851937
-0.008911383 0.12109733 0.07736033 0.003984775 -0.00324809 -0.06767109 0.047962554 -0.026702363
-0.032151554 0.04881163 -0.01674813 -0.028050553 -0.06397881 -0.016700154 0.059590124 0.029890005

network.2.running_mean f4 [32]
00000000: 22c5 793e b8d2 4a3e fe9e d23d f3bb f33b
00000010: 4d3c 933d abb7 bd3d d129 043e 7afe df3c
00000020: d519 cb3d 3a36 4f3e cb59 d73d 8c6c df3e
00000030: 46ee 103d 5213 823e cca2 b33d 62e7 fc3e
00000040: c3b4 863e fcd8 553e 8b96 453e 955e 4e3e
00000050: e20f 693f 417a 1c3d 67e0 e33d 8359 363c
00000060: 3c05 cf3e 05c0 cf3e 83a7 0f3e 194c a03e
00000070: 3543 043f 92ec d43e b56d 823e ca05 7f3d
0.24391606 0.19806945 0.102842316 0.007438177 0.07189236 0.092635475 0.12906577 0.027343024
0.099170364 0.2023553 0.105151735 0.43637502 0.035383485 0.25405365 0.087712854 0.4939528
0.26309785 0.20883554 0.19295709 0.20153268 0.9103986 0.038202528 0.11126786 0.01112974
0.4043368 0.40576187 0.14028744 0.31308058 0.5166505 0.4158674 0.25474325 0.06226138

network.2.running_var f4 [32]
00000000: aff4 433e 0060 0f3d 0e0e 1c3d 6441 893a
00000010: 5a2f 423d 5299 873c f1e9 243d 1dbf 3a3c
00000020: e6f9 6b3c bede 6a3e cb19 113d 9776 033f
00000030: 3369 db3b 1784 373e 5b7f c73c 5927 f73e
00000040: 522c 7b3e bdde 0e3e 0c05 953d 0369 083e
00000050: a457 303f c2eb 0f3c 5e9f 303d 0507 793b
00000060: 8ce3 193f 6659 033f 13e3 b43d 7c4e 663e
00000070: 68a0 863e 9b83 d63d bd87 8e3d fee0 b73c
0.19136308 0.035003662 0.03809934 0.0010471758 0.04740844 0.016552601 0.040262166 0.011398104
0.014402842 0.22936532 0.03542499 0.5135283 0.0066958903 0.17921482 0.02435272 0.48272207
0.24528626 0.13952155 0.07276353 0.13321309 0.6888373 0.008784236 0.043120734 0.0037998569
0.60112834 0.51308286 0.088323735 0.22490877 0.26294255 0.104743205 0.06959484 0.022446152

network.4.weight f4 [16, 32]
00000000: 29a0 5c3b 70bd fc3d f167 943d c607 743d
00000010: 69fb 06be 0a08 04be a4af d73a 8295 26be
00000020: 24d9 123e dc89 25be ab0c 83bd a57b ffbd
00000030: cdc7 8b3c 3294 86bd bb15 14be 435b 9bbd
00000040: e399 1d3c 4d0d 59bd 0066 c63c cc99 993d
00000050: 9592 ae3b f07d 4b3d 4ca2 973d 7386 c839
00000060: 4fb0 26be 3d29 903c a025 f23c 14f6 14bd
00000070: bb86 123c 8f3c 893d 8dab db3d 89b9 03bc
00000080: 0d4b 92bc 0ab6 183d 21e3 51bd 95bd 08be
00000090: 97a4 79bd 6d95 283d c48e 443e d064 34bd
000000a0: e6a5 9ebd 99da 933c 99a1 e03d df79 ffbd
000000b0: 8822 08be 2a8f 1abe b838 fbbc e286 013d
000000c0: 3ee0 2abe 079d 6e3d fbd9 35bc 0071 a5bb
000000d0: c0dd 8e3d ea78 bdbc bdde 1a3d 36b1 8f3d
000000e0: 613e 20be 0074 11be b4b9 a03d 740f 14bd
000000f0: d8f7 c4ba 7d11 d53d 50e0 c33d 030a 5a3e
00000100: 0d60 19be e052 39bd e3c7 15be 0535 bdbd
00000110: d1cf c33d 2672 ffbd c107 0abe 9c06 f6bc
00000120: 2e8c ebbd bf84 ad3d 9a00 22bd d801 e4bc
00000130: dc26 933d bcc9 b9bd ff63 193e a890 cdbd
00000140: 3510 dbbc 616e 47bd d892 0ebe 7aa7 0fbe
00000150: 2b5b ae3d f4fb d7bd 29db 853d 1be2 f93c
00000160: f8b2 06be e913 4e3d 0d4a f4bd c99e f7bd
00000170: 396e 593c 41a8 903d fae5 fc3d 09f4 18bd
00000180: 4873 f83d 2268 173e c1ef 053e 6fcc 0a3b
00000190: c56b 74bd 96c2 273d bd63 87bd a2d0 01be
000001a0: 2144 8ebd d3f9 22be d9ab efbd 0319 99bc
000001b0: 457c 4b3c 8ae3 97bd ba90 8ebd e8c1 1dbb
000001c0: 8680 85bd 9056 b2bd 5c9f e23c d9af 29be
000001d0: 3b3e 1ebd a2dc c43d 77b8 e33d d419 c1bd
000001e0: d2a6 0ebd 7459 873c 6f37 c2bd f08b a6bd
000001f0: 2e8e be3c dc1c f0bc 96a2 08be 84be 64be
00000200: a12e d1bb f9b3 e03c 7ca3 2a3c 2e63 9ebd
00000210: 5cd0 6ebd d284 8ebd c2ff 09bd e4f2 25bd
00000220: 2bff 20bc 4cb1 3abd 6dd4 2b3e 814b 213e
00000230: 7d9d d33d bd1a d23d 6b08 2f3e 272b b3bd
00000240: baf5 f7bd 63f7 4fbd 0971 ef3d ef0a 0e3d
00000250: 65b1 2fbd b1d9 f3bc 147a 323e fe09 1c3e
00000260: 9691 00be 4b54 dbbd 99a4 f03c 79f0 55bd
00000270: 47d2 2dbe e425 7fbc 02bb bc3d 16a4 67bc
00000280: aebd 173e 3c1b e23c 3f18 4b3d 8bae afbc
00000290: 436b c33d 12bc 8abd 1627 17be 3199 493d
000002a0: 139f 01bd 63e2 6dbc da14 babd e2fe 7ebd
000002b0: e965 5cbd 7dc9 c7bc 4bd6 fa3d 2577 b63d
000002c0: a4e2 01be f5a5 98bc 8d58 a8bd a44d 6d3e
000002d0: 01ab 23be 80d8 1c3e 4c19 b2bc a49d 923d
000002e0: f9c4 0c3e 3b8e 10be ee49 52bd 3006 fc3d
000002f0: b48b 433e b0f7 9f3d 18d8 39be baf1 9bbd
00000300: 88f0 e6bd 22ce a5bd c21c 30be 27a1 f73d
00000310: d45f 9b3d a41d 743d 49ed 033d 9312 9cbc
00000320: e36c 61bc 254b f43c 666f e13d b535 f53d
00000330: 08f0 0bbd 53ca 4ebe 56ac f5bc 625c 1d3e
00000340: aa45 82bd d5ca 24be 9386 be3d 21f0 0a3b
00000350: 39ed 76be 5707 10bd 0306 c0bd 2b57 df3d
00000360: ab6e 6a3d 2ba7 a53d b4ea c03d 6306 45bd
00000370: f4c2 6f3d 8c90 ffbd 517f d03d 35d1 123e
00000380: 8cac a53d 624b 233e 88c5 59bd ffb7 e13d
00000390: a5c4 28be beee 9a3c 3efa 70bd 7f2f 3bbe
000003a0: 73af 623c d301 08be 01f3 893d 424c ee3d
000003b0: bd63 4bbe 7fac 0cbe e420 a239 f05d d7bd
000003c0: c476 89bc 789f 313e f9b1 d23d d2bd 67bc
000003d0: 39cf babd f41f c53a d522 0d3d 9efd 46be
000003e0: 667a 61bc 2aa2 c6bd 1698 ac3d 06c5 d9bb
000003f0: 32d9 c2bd bd38 1a3e 2c00 683d 38de 0ebe
0.0033664799 0.1234082 0.07246388 0.059577726 -0.13181843 -0.12893692 0.0016455543 -0.1626797
0.14340645 -0.1616587 -0.063989006 -0.12474755 0.017063046 -0.06571235 -0.14461415 -0.07585766
0.009619209 -0.0529912 0.02421856 0.075000376 0.0053275325 0.04968065 0.074040025 0.00038247145
-0.16278194 0.017597789 0.029558957 -0.03636749 0.008943255 0.06701004 0.1072608 -0.0080398405
-0.017858053 0.03728298 -0.051241998 -0.1335357 -0.06094798 0.04115813 0.19195086 -0.044041455
-0.07746486 0.018048571 0.10968322 -0.12474417 -0.13294423 -0.15093675 -0.030666694 0.031622775
-0.16687104 0.05825522 -0.011099334 -0.005048871 0.06975889 -0.023128945 0.037810076 0.07016222
-0.15648796 -0.14204407 0.0784792 -0.03614755 -0.0015027476 0.10403726 0.095642686 0.21292882
-0.14978047 -0.04524505 -0.14627032 -0.09238628 0.09561122 -0.12472944 -0.1347952 -0.030032448
-0.115013465 0.08472585 -0.039551355 -0.02783291 0.07185146 -0.09071681 0.14979552 -0.100373566
-0.026741127 -0.04868925 -0.13923204 -0.14028731 0.08513483 -0.10546103 0.06535942 0.030503323
-0.13154209 0.050311957 -0.119281866 -0.12090833 0.013270908 0.07063342 0.12348552 -0.037342105
0.12131363 0.14785817 0.1307974 0.002117898 -0.05967309 0.040957056 -0.066108204 -0.12677243
-0.06946588 -0.15915613 -0.11702699 -0.018688684 0.012419765 -0.074164465 -0.06961198 -0.0024071876
-0.065186545 -0.08707917 0.02766388 -0.16570987 -0.038633566 0.09612395 0.11119168 -0.094287544
-0.03482706 0.016522147 -0.09483229 -0.0813216 0.023261156 -0.029310636 -0.13343272 -0.22338301
-0.0063837324 0.027429568 0.010414954 -0.07733761 -0.058304176 -0.06958927 -0.033691175 -0.04051484
-0.009826462 -0.04557924 0.16780253 0.15751459 0.10332773 0.10259006 0.17093055 -0.08748465
-0.121074155 -0.050773036 0.116914816 0.034678396 -0.042893786 -0.02976689 0.17429382 0.15238187
-0.12555537 -0.10709437 0.029375361 -0.052231286 -0.16974746 -0.015572999 0.092153564 -0.014138242
0.14818451 0.027600877 0.04958367 -0.021445533 0.09541943 -0.06774153 -0.14761004 0.04921836
-0.031645846 -0.014519307 -0.09086008 -0.062254794 -0.053808127 -0.02438807 0.122479044 0.08909444
-0.12684113 -0.018633822 -0.08220015 0.23174149 -0.15983202 0.15316963 -0.021740578 0.07158974
0.13747014 -0.14116757 -0.051340036 0.12305868 0.19096261 0.078109145 -0.1814884 -0.07614465
-0.112763464 -0.08095957 -0.1719847 0.12091284 0.07586637 0.05959858 0.032208715 -0.019051826
-0.013758871 0.029820988 0.11007576 0.119731344 -0.03416446 -0.20194368 -0.029989403 0.15367272
-0.063609436 -0.16093 0.09303012 0.0021200257 -0.24113931 -0.03516325 -0.09376147 0.10905298
0.057234447 0.080885254 0.09419766 -0.048101794 0.05853553 -0.12478742 0.10180534 0.14337619
0.08089551 0.15946725 -0.053166896 0.110214226 -0.16481264 0.01891267 -0.0588324 -0.18279837
0.013835776 -0.13281946 0.067358024 0.11635639 -0.19862266 -0.13737677 0.00030923553 -0.10515964
-0.016780265 0.17345989 0.10287852 -0.014144378 -0.09121556 0.001503943 0.034457047 -0.19432685
-0.013762092 -0.09698899 0.084274456 -0.0066458015 -0.09514083 0.15060706 0.05664079 -0.13951957

network.4.bias f4 [16]
00000000: 182c 8fbd e81d a0bc a3dd 2dbd 2544 0f3e
00000010: 34fa a43d c210 953b 81a4 113d ee04 6c3e
00000020: d688 abbd ae9d 8abd bdfc 573d 81d0 f03c
00000030: ed14 1a3e 5ffd 453e 12b6 7ebd 411f 2d3d
-0.06990832 -0.01954551 -0.042447697 0.13990839 0.08055535 0.004549117 0.035557274 0.23048756
-0.08375709 -0.06768356 0.052731264 0.029396297 0.15047045 0.19334935 -0.062185355 0.042266134

network.6.weight f4 [16]
00000000: 3a06 6d3f a8d1 6a3f daa1 683f 3494 833f
00000010: 1867 6d3f 1244 6b3f 60d8 743f be69 773f
00000020: 0a07 783f 0d6a 6e3f b4ca 543f 6edb 6b3f
00000030: d372 713f d980 683f 6db4 6e3f 2653 703f
0.92587626 0.9172616 0.90871966 1.0279603 0.92735434 0.9190074 0.9564266 0.96645725
0.9688574 0.9313057 0.831218 0.921317 0.9431583 0.90821606 0.9324406 0.93876874

network.6.bias f4 [16]
00000000: 2213 e1bc 68e8 06bd 4191 ed3c 7ba0 db3c
00000010: 6454 003d 4fd2 f4bc 9efa 21bd 6abe e23c
00000020: ea88 09bd 34a3 0cbd 2f46 9abc cd35 f7bc
00000030: d0da 04bd dbdf cd3c ff49 f0bc 8e74 c83c
-0.027474944 -0.032936484 0.028999927 0.026809921 0.03133048 -0.02988544 -0.039545648 0.027678687
-0.033577837 -0.03433533 -0.018832294 -0.030177021 -0.03243524 0.025131157 -0.02933216 0.02446964

network.6.running_mean f4 [16]
00000000: 89f6 203e 48a5 7d3e 6e15 8e3e b6c5 c23e
00000010: 8fad 9e3e 7699 7d3e 16de 7a3e 4e5b ed3e
00000020: ba55 603e 40c8 663e 8569 653e 033c c43e
00000030: ebae ca3e 1d42 d73e 1094 823e 2ab3 e13e
0.15719046 0.24770081 0.27750725 0.38041466 0.3099179 0.24765572 0.24498782 0.46358722
0.21907702 0.22537327 0.22403534 0.38327035 0.39586577 0.42042628 0.25503588 0.44082004

network.6.running_var f4 [16]
00000000: 3523 203d 758d 1a3e adbd e53d 20a3 173e
00000010: 7774 1b3e bdc2 873e 9264 143e 831b 503e
00000020: ec7c 3b3e b697 063e 64c0 423e 6fae 563e
00000030: 1795 0f3f cdbe 873e 2aa9 743e da24 683e
0.039096076 0.15093024 0.112178184 0.14808321 0.15181147 0.2651576 0.1449149 0.20322995
0.18309373 0.1314381 0.19018704 0.20964979 0.5608687 0.26512757 0.23892656 0.22670308

network.8.weight f4 [1, 16]
00000000: 1eb9 793d 7b90 b33d 5995 40bd ab8f d7bd
00000010: 32ed a0bd 1fc3 e13d 7ce7 9c3d 946d f7bd
00000020: 8210 aa3d 56bb 0a3e 65e3 083d 958f 043e
00000030: a287 4d3d 5d04 03be d24e 513d be24 23be
0.060967557 0.08767792 -0.04701743 -0.10525449 -0.078577414 0.110235445 0.0766134 -0.12081447
0.0830393 0.13548025 0.033419985 0.12945397 0.050178178 -0.12794633 0.05110056 -0.15931985
