best_model.pth (torch, 10146 bytes, 13 tensors)

network.0.weight f4 [32, 11]
0	0xbe173f7a	-0.14770308
1	0x3df06ac8	0.11739117
2	0x3e610dec	0.21977967
3	0xbdde0578	-0.10840887
4	0x3e41424c	0.18872947
5	0x3c61ec80	0.013789296
6	0x3dd36ca8	0.10323459
7	0x3e1a6566	0.15077743
8	0x3d002588	0.031285793
9	0x3e13f978	0.14450634
10	0xbd51e280	-0.051241398
11	0x3d670008	0.056396514
12	0x3e1d0afa	0.15336218
13	0xbe1a19a9	-0.15048851
14	0xbe8d7931	-0.27631524
15	0x3e258d96	0.16167292
16	0xbd85a9b2	-0.065265074
17	0x3e74fee8	0.23925364
18	0x3d8adef4	0.06780806
19	0x3e88217a	0.2658804
20	0x3c9f5d30	0.019453615
21	0xbd91f482	-0.07126714
22	0xbe0e130d	-0.13874455
23	0x3e7c1b10	0.24619699
24	0xbe35d7f2	-0.17758158
25	0xbe05d671	-0.13070084
26	0xbdacb3cc	-0.08432731
27	0x3e490644	0.19631296
28	0x3d8503c8	0.06494862
29	0x3e8299ae	0.25507873
30	0xbe52731f	-0.20551728
31	0xbe8de006	-0.2770998
32	0x3e45ad4c	0.19304389
33	0xbe99e178	-0.30054832
34	0xbe45721e	-0.19281814
35	0x3e1ab8a6	0.151095
36	0x3c1ac2a0	0.009445816
37	0x3e3b0ef4	0.18267423
38	0x3ce649a0	0.028111279
39	0x3e56295c	0.20914215
40	0xbe64ed45	-0.22356136
41	0xbd1ca8c0	-0.03824687
42	0x3e90b2bc	0.28261364
43	0xbe88df22	-0.26732737
44	0x3e1bbbcc	0.15208358
45	0xbd205d18	-0.03915128
46	0xbe939f86	-0.28832644
47	0x3e982934	0.29718935
48	0xbde0136c	-0.109412044
49	0x3e379cde	0.17930934
50	0x3e017430	0.12641978
51	0xbe8b8459	-0.2724941
52	0xbe7a1df3	-0.24425487
53	0x3d159e20	0.036527753
54	0x3e66a4b0	0.22523761
55	0xbe6883ba	-0.227065
56	0xbc9d9d00	-0.019239902
57	0x3d625188	0.055253536
58	0x3d116d00	0.03550434
59	0xbe0efd7c	-0.13963884
60	0xbe2923b5	-0.16517527
61	0xbd1f1af0	-0.03884405
62	0xbd3e1440	-0.04640603
63	0xbe665c64	-0.22496182
64	0xbdf91cee	-0.12163721
65	0x3de06bf0	0.109580874
66	0x3e8aa7be	0.27081102
67	0xbdd33b70	-0.10314071
68	0xbe1bf771	-0.1523111
69	0xbe6cfba8	-0.23142874
70	0xbe825496	-0.2545516
71	0xbbe61e40	-0.007022649
72	0x3e1359da	0.14389744
73	0xbd351eb0	-0.04421872
74	0x3d969720	0.073530436
75	0x3e23828e	0.15967771
76	0xbe78b6a9	-0.2428843
77	0x3dfc6504	0.12323955
78	0x3c95b090	0.018272668
79	0x3d91f13c	0.0712609
80	0xbdc124b6	-0.0943083
81	0x3d1d77b8	0.03844425
82	0xbe463fd0	-0.1936028
83	0x3e2a9fd6	0.16662535
84	0xbe143ad0	-0.1447556
85	0xbdc26430	-0.094917655
86	0xbe990985	-0.29890075
87	0x3dbe31bc	0.0928683
88	0xbd6d59d0	-0.05794698
89	0xbc807b40	-0.01568377
90	0x3e466ff2	0.19378641
91	0x3e85c9ba	0.26130468
92	0xbd236610	-0.039892256
93	0x3e935a62	0.28779894
94	0xbd2b1cb0	-0.041775405
95	0xbe000a04	-0.1250382
96	0xbc912d10	-0.017721683
97	0xbe870ba5	-0.26376072
98	0x3c26d5a0	0.010182768
99	0x3c45fda0	0.012084395
100	0xbdf4d6f4	-0.119550616
101	0xbd7a75b4	-0.061147407
102	0xbd088080	-0.033325672
103	0xbe8f4358	-0.27981067
104	0x3e68bee4	0.22729069
105	0xbdc0f56e	-0.09421812
106	0xbe81d935	-0.25361028
107	0x3db8b658	0.09019154
108	0x3e7ce94c	0.2469837
109	0x3e9a4c3c	0.30136287
110	0xbc9feb70	-0.019521445
111	0x3ce3a040	0.027786374
112	0xbe123ac1	-0.14280225
113	0x3e37541e	0.17903182
114	0x3dfc8f60	0.12332034
115	0x3e450896	0.19241557
116	0xbe35cfd1	-0.17755057
117	0x3d677c48	0.05651501
118	0x3e010fc6	0.12603673
119	0xbe955529	-0.29166535
120	0xbe819bb5	-0.25314108
121	0xbe3c5550	-0.18391919
122	0x3de12474	0.10993281
123	0x3d050688	0.03247693
124	0x3e381714	0.17977554
125	0x3d31ff18	0.043456167
126	0xbe171c5e	-0.14756915
127	0xbd9c64bc	-0.07636401
128	0xbe3e1f2b	-0.18566577
129	0x3e8bd4e6	0.27310866
130	0xbe16c8b5	-0.14725001
131	0xbe207859	-0.15670909
132	0xbda77230	-0.081760764
133	0x3c9d5c90	0.019209176
134	0x3be51b00	0.006991744
135	0xbdaf377c	-0.08555505
136	0xbe7cfd01	-0.24705888
137	0x3ddf99a0	0.109179735
138	0x3e98013c	0.29688442
139	0xbe243b7a	-0.16038314
140	0xbe6753cc	-0.2259056
141	0x3e29c1a6	0.16577777
142	0x3e8aa752	0.2708078
143	0x3e0f3872	0.13986376
144	0xbd846094	-0.06463733
145	0x3bafeac0	0.0053685606
146	0x3e45ba28	0.19309294
147	0xbe8a5002	-0.27014166
148	0xbe8f1c68	-0.2795136
149	0xbdb46d68	-0.0880993
150	0xbe637c19	-0.22215308
151	0xbe733557	-0.23750816
152	0x3bacaf00	0.005269885
153	0x3e15b046	0.14618024
154	0xbe41e49c	-0.18934864
155	0x3e817238	0.25282454
156	0xbd3d9dc8	-0.04629305
157	0xbe4d18fa	-0.20029059
158	0xbd4f8a70	-0.050669134
159	0xbe466691	-0.19375063
160	0x3e1365d8	0.14394319
161	0xbe5cd1c2	-0.21564391
162	0xbe8a7356	-0.2704112
163	0xbde4a9ca	-0.11165197
164	0xbe88df34	-0.2673279
165	0x3e3e8cf2	0.18608454
166	0xbe6edb1a	-0.23325768
167	0xbdf51a2c	-0.119678825
168	0xbd9cfcac	-0.07665381
169	0xbd345530	-0.044026554
170	0xbe06603b	-0.13122647
171	0x3e4f8458	0.20265329
172	0xbe493cf4	-0.19652158
173	0x3e38274a	0.17983738
174	0x3e99a546	0.30008906
175	0xbe0d41e0	-0.1379466
176	0x3e15ee44	0.14641672
177	0x3dcc859c	0.099864215
178	0x3e192f00	0.14959335
179	0x3c90dae0	0.017682493
180	0xbd861448	-0.06546837
181	0x3c80c810	0.015720397
182	0xbe92eff0	-0.28698683
183	0x3e2d23aa	0.16908136
184	0xbe7bc326	-0.24586162
185	0xbe349650	-0.17635465
186	0xbcdfc740	-0.02731669
187	0xbe2c6ba9	-0.16837944
188	0xbe928169	-0.28614357
189	0xbe2a097f	-0.16605185
190	0xbe21b258	-0.15790689
191	0xbe90f9ea	-0.2831567
192	0xbe9a0c49	-0.30087498
193	0x3e0cd664	0.13753659
194	0xbdb9518c	-0.09048757
195	0xbdb8fe8a	-0.090329245
196	0xbe689500	-0.22713089
197	0x3e9a1c7e	0.30099863
198	0xbde1737e	-0.110083565
199	0x3d92bb44	0.07164624
200	0xbe2fbed8	-0.17162645
201	0x3e0b97b6	0.13632092
202	0xbe86ae28	-0.26304746
203	0x3e9668a6	0.29376715
204	0xbe6318be	-0.22177407
205	0x3dcd93f8	0.100379884
206	0xbe8dd468	-0.27701116
207	0xbe8cdb82	-0.2751122
208	0x3d3f8a60	0.046762824
209	0xbe83b223	-0.25721845
210	0xbe0a300e	-0.13494894
211	0x3e5bebb4	0.21476632
212	0x3e96ff98	0.29491878
213	0xbe9869ae	-0.29768127
214	0xbe824afa	-0.25447828
215	0xbd2f2bf0	-0.04276651
216	0x3e52fd60	0.20604467
217	0x3da76bac	0.08174834
218	0x3e55aaa8	0.20865881
219	0xbe851150	-0.2598977
220	0xba918c00	-0.0011104345
221	0x3cce1be0	0.025159776
222	0x3c2746a0	0.010209709
223	0x3e164aee	0.14677021
224	0xbe90b8df	-0.28266045
225	0x3e2e6d76	0.17033944
226	0xbe8ec02a	-0.27880985
227	0xbe4ff8db	-0.20309775
228	0x3c87c380	0.016572714
229	0x3cc50870	0.024051875
230	0x3d52f2f0	0.051501215
231	0xbbfaae80	-0.0076501966
232	0x3df97588	0.121806204
233	0x3dbd0a84	0.09230521
234	0xbd35cff8	-0.044387788
235	0xbe91dc76	-0.2848851
236	0x3e56c508	0.20973599
237	0xbded0970	-0.11574066
238	0xbe85a1a9	-0.260999
239	0x3d89e3c4	0.06732896
240	0x3e7d89a0	0.24759531
241	0xbe915031	-0.28381494
242	0x3e480a0e	0.19535086
243	0xbd182580	-0.037145138
244	0xbe8a766b	-0.2704347
245	0x3db183fc	0.08667752
246	0xbe160006	-0.14648446
247	0x3d6fd380	0.05855131
248	0x3cf3e630	0.029772848
249	0x3e369a6a	0.17832342
250	0xbe90d9e8	-0.2829125
251	0xbc5ff960	-0.0136702955
252	0x3d066920	0.0328151
253	0x3d3aecf0	0.045636117
254	0x3e05204e	0.13000605
255	0xbd1d9770	-0.0384745

network.0.bias f4 [32]
0	0x3decebfc	0.11568448
1	0x3a0dae00	0.0005404651
2	0xbddaabf4	-0.10677329
3	0x3d050150	0.032471955
4	0x3e8e94f2	0.2784801
5	0xbe7b4548	-0.24538147
6	0x3e7b62a0	0.24549341
7	0xbe5f3f81	-0.21801569
8	0x3b448900	0.0029988885
9	0x3e39baac	0.18137616
10	0x3e5f2b54	0.21793872
11	0x3e618a0c	0.22025317
12	0xbd0e92c8	-0.03480795
13	0xbd8f73aa	-0.07004483
14	0x3e873e76	0.2641484
15	0xbdbb029c	-0.09131357
16	0xbe3d82c2	-0.18506911
17	0xbe060f8a	-0.13091865
18	0x3e7a9c0c	0.2447359
19	0xbc80c200	-0.015717506
20	0xbe95196a	-0.29120952
21	0xbe5cda3e	-0.21567628
22	0x3e07fa78	0.1327914
23	0xbe5b6ce0	-0.21428251
24	0x3dee8d64	0.11648062
25	0xbdcc83f0	-0.099861026
26	0x3d0cab58	0.034343094
27	0x3d4e0ed8	0.050307125
28	0xbdac2486	-0.08405404
29	0xbd19e528	-0.037572056
30	0x3e145452	0.1448529
31	0x3e9a1a4e	0.30098194

network.2.weight f4 [32]
0	0x3f800000	1.0
1	0x3f800000	1.0
2	0x3f800000	1.0
3	0x3f800000	1.0
4	0x3f800000	1.0
5	0x3f800000	1.0
6	0x3f800000	1.0
7	0x3f800000	1.0
8	0x3f800000	1.0
9	0x3f800000	1.0
10	0x3f800000	1.0
11	0x3f800000	1.0
12	0x3f800000	1.0
13	0x3f800000	1.0
14	0x3f800000	1.0
15	0x3f800000	1.0
16	0x3f800000	1.0
17	0x3f800000	1.0
18	0x3f800000	1.0
19	0x3f800000	1.0
20	0x3f800000	1.0
21	0x3f800000	1.0
22	0x3f800000	1.0
23	0x3f800000	1.0
24	0x3f800000	1.0
25	0x3f800000	1.0
26	0x3f800000	1.0
27	0x3f800000	1.0
28	0x3f800000	1.0
29	0x3f800000	1.0
30	0x3f800000	1.0
31	0x3f800000	1.0

network.2.bias f4 [32]
0	0x00000000	0.0
1	0x00000000	0.0
2	0x00000000	0.0
3	0x00000000	0.0
4	0x00000000	0.0
5	0x00000000	0.0
6	0x00000000	0.0
7	0x00000000	0.0
8	0x00000000	0.0
9	0x00000000	0.0
10	0x00000000	0.0
11	0x00000000	0.0
12	0x00000000	0.0
13	0x00000000	0.0
14	0x00000000	0.0
15	0x00000000	0.0
16	0x00000000	0.0
17	0x00000000	0.0
18	0x00000000	0.0
19	0x00000000	0.0
20	0x00000000	0.0
21	0x00000000	0.0
22	0x00000000	0.0
23	0x00000000	0.0
24	0x00000000	0.0
25	0x00000000	0.0
26	0x00000000	0.0
27	0x00000000	0.0
28	0x00000000	0.0
29	0x00000000	0.0
30	0x00000000	0.0
31	0x00000000	0.0

network.2.running_mean f4 [32]
0	0x3e72c3e0	0.23707533
1	0x3dcb8e13	0.09939208
2	0x3c50ae17	0.012736819
3	0x3da7503d	0.08169601
4	0x3eb66219	0.35621718
5	0x00000000	0.0
6	0x3e24f50f	0.16109107
7	0x00000000	0.0
8	0x3e4d071c	0.20022243
9	0x3e03d963	0.12875895
10	0x3e8c3a43	0.273882
11	0x3e333f91	0.17504717
12	0x3c9ca9cf	0.01912394
13	0x39ba4aca	0.00035532407
14	0x3c5e97df	0.013586014
15	0x3ccd3ed5	0.025054375
16	0x00000000	0.0
17	0x00000000	0.0
18	0x3de118b4	0.1099104
19	0x3cd8ae50	0.026450306
20	0x00000000	0.0
21	0x3af68378	0.0018807491
22	0x3deef6ff	0.116682045
23	0x3c0a0816	0.008424779
24	0x3d6fe396	0.058566652
25	0x00000000	0.0
26	0x3e19fdeb	0.15038268
27	0x3e7dcb78	0.24784648
28	0x3d068681	0.032843117
29	0x3d00bd29	0.031430397
30	0x3e1ef8d3	0.15524606
31	0x3e2005e3	0.15627246

network.2.running_var f4 [32]
0	0x3dfb18cc	0.12260589
1	0x3df49725	0.11942891
2	0x3de40b37	0.111349516
3	0x3df2176f	0.11820876
4	0x3e064701	0.13113023
5	0x3de01708	0.10941893
6	0x3dfff4f7	0.12497895
7	0x3de01708	0.10941893
8	0x3df4a68a	0.11945827
9	0x3dfa73d7	0.12229126
10	0x3def8c7b	0.116967164
11	0x3df374b3	0.11887493
12	0x3de330b8	0.11093277
13	0x3de022ad	0.10944114
14	0x3de289d0	0.11061442
15	0x3de73676	0.112896845
16	0x3de01708	0.10941893
17	0x3de01708	0.10941893
18	0x3dfd2226	0.12360029
19	0x3de6492f	0.112444274
20	0x3de01708	0.10941893
21	0x3de08a6d	0.109639026
22	0x3df89337	0.12137454
23	0x3de14f92	0.11001505
24	0x3debf7a7	0.11521845
25	0x3de01708	0.10941893
26	0x3de4da7f	0.11174487
27	0x3e05fdc4	0.13085085
28	0x3de84b06	0.113424346
29	0x3deab2b0	0.11459863
30	0x3e0399e4	0.12851673
31	0x3dfbb1ec	0.12289795

network.4.weight f4 [16, 32]
0	0xbdd1053e	-0.10206078
1	0x3d6f0ed4	0.05836375
2	0xbe2041cc	-0.156501
3	0x3e2a8055	0.16650517
4	0xbd6097ea	-0.054832377
5	0x3d139e80	0.03603983
6	0x3e26c043	0.1628428
7	0x3cc4faa8	0.024045303
8	0x3dfa48e2	0.122209325
9	0xbdc50229	-0.09619553
10	0x3d5e3290	0.05424744
11	0xbd833543	-0.06406643
12	0x3cb64e08	0.022254005
13	0xbda6e64c	-0.081493944
14	0xbdc577f5	-0.096420206
15	0x3e11822f	0.14209817
16	0x3a05f000	0.000510931
17	0xbe022faf	-0.12713502
18	0xbd8e5fc3	-0.06951859
19	0xbd28b7ac	-0.04119079
20	0x3e0a6857	0.13516365
21	0xbdea3842	-0.114365116
22	0xbd80758c	-0.0627242
23	0x3d4081e0	0.04699886
24	0xbe2d6375	-0.16932471
25	0x3d625d18	0.055264562
26	0xbd7fd496	-0.062458597
27	0x3dfd6ab6	0.12373869
28	0xbd96fe36	-0.07372706
29	0xbe10ed02	-0.14152911
30	0x3e187671	0.14888932
31	0xbe13e322	-0.14442113
32	0xbca3dc68	-0.020002559
33	0xbd83a327	-0.06427603
34	0xbdcf52b4	-0.10123196
35	0x3e1b1d71	0.1514795
36	0xbdebdd18	-0.1151678
37	0xbddf1c1b	-0.108940326
38	0x3e2baee5	0.16765936
39	0x3d682824	0.056678906
40	0x3dc041ba	0.09387536
41	0x3e1fef0f	0.15618537
42	0x3cf724e8	0.030168965
43	0xbd6d8f9a	-0.057998277
44	0x3dac92d6	0.08426444
45	0x3dccf166	0.100069806
46	0x3e1d832b	0.15382068
47	0xbd378ac4	-0.04481007
48	0xbe327365	-0.17426832
49	0x3d95a7a2	0.07307364
50	0xbcc77548	-0.024347916
51	0x3d5acf48	0.053420335
52	0x3ccdc718	0.02511935
53	0xbd0337a8	-0.0320355
54	0xbd84b284	-0.06479362
55	0x3de70346	0.11279921
56	0x3e0a8549	0.13527407
57	0xbdfa03ba	-0.12207742
58	0xbe30f474	-0.17280751
59	0x3e0ca1e1	0.13733627
60	0x3b32e540	0.0027297288
61	0x3dfec1ee	0.12439333
62	0x3e01ecf1	0.12688042
63	0x3dba898e	0.09108268
64	0x3b135f40	0.0022487193
65	0x3e07d89d	0.13266225
66	0xbdf21e70	-0.11822212
67	0x3d9c2cce	0.07625733
68	0xbc9a9af0	-0.018872708
69	0xbde57e2a	-0.112057045
70	0xbde0d95a	-0.109789565
71	0x3e1779b5	0.14792521
72	0x3e2bc3eb	0.16773956
73	0xbd75110e	-0.059830718
74	0x3e0086d7	0.12551437
75	0x3e0537f1	0.13009621
76	0xbe1109f9	-0.1416396
77	0x3d0f2770	0.03494972
78	0xbe22ba13	-0.15891294
79	0x3d1a8b8c	0.03773074
80	0x3dd411c6	0.103549525
81	0x3c652ca0	0.01398769
82	0x3e0847c3	0.13308625
83	0xbe1da5c8	-0.15395272
84	0xbe0dc9a4	-0.13846451
85	0x3dabcd8e	0.08388816
86	0x3d265484	0.040607944
87	0xbc881630	-0.016612142
88	0x3da25676	0.07926647
89	0xbd0e041c	-0.034671888
90	0xbdca711d	-0.09884856
91	0xbdf2b2b8	-0.11850494
92	0x3e143935	0.14474948
93	0x3db8f832	0.090317145
94	0xbe2845b9	-0.16432847
95	0xbe2493eb	-0.16072051
96	0x3d695d80	0.056973934
97	0x3d5ed86c	0.054405615
98	0xbdc95780	-0.098311424
99	0xbd882786	-0.066481635
100	0xbd8d6403	-0.06903841
101	0x3ce9f908	0.02856113
102	0xbdfa25c4	-0.122142345
103	0x3b455480	0.003011018
104	0xbdb83469	-0.089943714
105	0xbdd630c0	-0.10458517
106	0x3e11704b	0.14202993
107	0x3c386230	0.0112538785
108	0x3e0d3d39	0.13792886
109	0x3db331d6	0.0874974
110	0xbdb28e3e	-0.08718537
111	0x3e12f59d	0.14351507
112	0x3daed842	0.08537342
113	0xbd837aa3	-0.064198755
114	0x3dc3f16a	0.095675305
115	0x3de462a2	0.11151625
116	0xbd86bfa7	-0.065795235
117	0x3e220833	0.1582344
118	0x3dc28a9e	0.094990954
119	0x3e28b04b	0.164735
120	0x3d974aaa	0.07387288
121	0x3d685988	0.05672601
122	0xbdd4ee60	-0.10397029
123	0xbbf948c0	-0.0076075494
124	0x3e0d505d	0.13800187
125	0xbcd39ac0	-0.025830626
126	0xbc6f34c0	-0.014599979
127	0x3de63372	0.11240281
128	0xbdb1ba5b	-0.086781226
129	0x3cd31440	0.025766492
130	0x3d721970	0.05910629
131	0xbdd4d411	-0.10392011
132	0x3e01f12f	0.1268966
133	0xbe1c95b6	-0.15291485
134	0x3d9f352a	0.07773812
135	0x3da68e8e	0.08132659
136	0x3dbb1a4e	0.091358766
137	0x3da5c90e	0.08094989
138	0x3db53a06	0.08848958
139	0x3ddbe592	0.107371464
140	0xbdff4bb4	-0.12465611
141	0xbe15beee	-0.14623615
142	0x3dafa21a	0.0857584
143	0x3e1a637b	0.15077011
144	0x3e346783	0.17617612
145	0x3d55c150	0.05218631
146	0x3d4e0ab4	0.050303176
147	0x3e25c867	0.16189729
148	0xbdd13c0b	-0.102165304
149	0xbe140132	-0.14453581
150	0x3d6143d4	0.054996327
151	0xbc842400	-0.016130447
152	0x3dba49aa	0.090960816
153	0x3de88eae	0.11355339
154	0x3ba48c00	0.005021572
155	0xbbad58a0	-0.005290106
156	0x3b8cebc0	0.0043005645
157	0xbcc67a20	-0.024228156
158	0x3b598980	0.0033193529
159	0x3e220257	0.15821205
160	0x3dfb5336	0.122717306
161	0x3ddc97ee	0.10771166
162	0x3dc7453a	0.09730001
163	0xbe1b9f8e	-0.15197584
164	0xbd8b50dd	-0.06802533
165	0xbdf1d3e5	-0.11807994
166	0x3d5ac768	0.053412825
167	0x3d644c24	0.055736676
168	0x3d94c416	0.07263963
169	0xbe226f1f	-0.15862702
170	0x3d7db7fc	0.06194304
171	0x3dae8026	0.08520536
172	0xbdd48bef	-0.10378253
173	0x3d6abb04	0.05730726
174	0xbd0b73f8	-0.034046143
175	0xbd0790d4	-0.033097103
176	0xbcf18950	-0.029484421
177	0xbe2a9535	-0.1665848
178	0x3df1ca0e	0.11806117
179	0x3d9b1856	0.07573001
180	0x3e087a1f	0.13327836
181	0x3de3b1d2	0.11117901
182	0xbe14a997	-0.14517818
183	0x3d6e6a58	0.058206886
184	0x3e1ba3b3	0.15199165
185	0x3d8dcc7a	0.069237664
186	0x3e02be11	0.12767817
187	0xbda6ad6b	-0.081385456
188	0xbd312d2c	-0.04325597
189	0x3de3a34a	0.11115129
190	0xbdc11f12	-0.09429754
191	0x3dac74fe	0.08420752
192	0xbdb413f5	-0.08792869
193	0xbe059ecf	-0.13048862
194	0x3e20752f	0.15669702
195	0x3cac5280	0.021035433
196	0xbc245870	-0.010030851
197	0x3e13185b	0.1436476
198	0x3e0c12d7	0.13679062
199	0x3c7b8620	0.015351802
200	0x3e189955	0.14902242
201	0x3d07ca2c	0.03315179
202	0x3ce50530	0.027956575
203	0x3d36d570	0.044637144
204	0x3e0db733	0.13839416
205	0xbd63937a	-0.055560566
206	0x3d8216da	0.06352015
207	0xbd142bd8	-0.036174625
208	0x3cf33b38	0.029691324
209	0xbd4a5374	-0.049395993
210	0xbc3ea750	-0.01163657
211	0xbddace67	-0.106838994
212	0x3d9c7cb2	0.07640971
213	0x3da8821e	0.08227943
214	0x3d7bf468	0.06151238
215	0xbdb19114	-0.086702496
216	0xbdd546b8	-0.10413879
217	0xbd10f5c8	-0.035390645
218	0x3e2c5d85	0.1683255
219	0xbcc669e0	-0.024220407
220	0xbdbeefea	-0.09323104
221	0xbdf61408	-0.120155394
222	0xbb055740	-0.0020346195
223	0x3e2bb9cf	0.16770099
224	0x3dc62e4a	0.09676798
225	0xbdd408a2	-0.10353209
226	0x3e07f7b7	0.1327809
227	0x3e210617	0.1572498
228	0xbd62fe3c	-0.055418238
229	0xbe0b7eea	-0.13622633
230	0x3d2453c4	0.040118948
231	0x3d682c40	0.056682825
232	0x3d4954cc	0.049153134
233	0xbde565f5	-0.112010874
234	0xbdf37a0f	-0.11888515
235	0xbe2e70f9	-0.17035283
236	0x3e14a87f	0.14517401
237	0x3c3404b0	0.010987446
238	0xbe09a1b7	-0.13440596
239	0x3d3c3408	0.04594806
240	0x3d238f98	0.039931864
241	0x3d285484	0.041096225
242	0x3da85efa	0.0822124
243	0xbdf2eae2	-0.118612066
244	0x3ded3402	0.11582185
245	0x3d98d30e	0.074621305
246	0x3ca40f20	0.020026743
247	0x3e1dbbb7	0.15403639
248	0xbdf7851e	-0.12085937
249	0x3da9a54a	0.082834795
250	0x3e0f0b9b	0.13969271
251	0x3d70a6c4	0.05875279
252	0xbdd76a0b	-0.10518273
253	0xbc3108b0	-0.010805294
254	0x3e2bea55	0.1678861
255	0x3dff2f9a	0.12460251

network.4.bias f4 [16]
0	0x3d2e9d24	0.04263033
1	0xbe2e6cbd	-0.17033668
2	0xbd8363e0	-0.06415534
3	0x3e037ab3	0.12839775
4	0x3cf728e0	0.030170858
5	0xbdc834ae	-0.09775673
6	0xbdef86a4	-0.116956025
7	0xbc613da0	-0.013747603
8	0x3e097ce3	0.13426547
9	0x3d8599ac	0.06523451
10	0xbd07e444	-0.033176675
11	0xbe2e8301	-0.17042162
12	0x3e1829a1	0.1485963
13	0xbdad4006	-0.08459477
14	0x3e33129b	0.17487566
15	0xbba4b740	-0.005026728

network.6.weight f4 [16]
0	0x3f800000	1.0
1	0x3f800000	1.0
2	0x3f800000	1.0
3	0x3f800000	1.0
4	0x3f800000	1.0
5	0x3f800000	1.0
6	0x3f800000	1.0
7	0x3f800000	1.0
8	0x3f800000	1.0
9	0x3f800000	1.0
10	0x3f800000	1.0
11	0x3f800000	1.0
12	0x3f800000	1.0
13	0x3f800000	1.0
14	0x3f800000	1.0
15	0x3f800000	1.0

network.6.bias f4 [16]
0	0x00000000	0.0
1	0x00000000	0.0
2	0x00000000	0.0
3	0x00000000	0.0
4	0x00000000	0.0
5	0x00000000	0.0
6	0x00000000	0.0
7	0x00000000	0.0
8	0x00000000	0.0
9	0x00000000	0.0
10	0x00000000	0.0
11	0x00000000	0.0
12	0x00000000	0.0
13	0x00000000	0.0
14	0x00000000	0.0
15	0x00000000	0.0

network.6.running_mean f4 [16]
0	0x3e68d8ef	0.22739004
1	0x3df29a15	0.11845795
2	0x3e16d0e6	0.14728126
3	0x3e5558b9	0.20834626
4	0x3e70e94d	0.23526497
5	0x3e13a5c9	0.14418711
6	0x3e23c7fc	0.15994257
7	0x3e651dd6	0.22374663
8	0x3e5437bc	0.20724386
9	0x3e34abaa	0.1764361
10	0x3e09ea21	0.1346822
11	0x3e189562	0.14900735
12	0x3e865fc6	0.26244944
13	0x3e9c0bbb	0.304777
14	0x3e88ef53	0.2674509
15	0x3e6e5acc	0.23276824

network.6.running_var f4 [16]
0	0x3e42965c	0.1900267
1	0x3e33483b	0.17508022
2	0x3e2b1ed0	0.16710973
3	0x3e6d7d34	0.23192292
4	0x3e66b54b	0.22530095
5	0x3e2e3c95	0.17015298
6	0x3e3dae54	0.18523532
7	0x3e872f93	0.26403484
8	0x3e547414	0.20747405
9	0x3e31c20e	0.17359182
10	0x3e2c9aac	0.16855878
11	0x3e387ca7	0.18016301
12	0x3e679ab5	0.2261761
13	0x3ea58526	0.32328147
14	0x3e6a35da	0.22872105
15	0x3eb45247	0.35219023

network.8.weight f4 [1, 16]
0	0x3d8357f8	0.06413263
1	0x3d97d170	0.07412994
2	0x3e4b2804	0.19839483
3	0xbd7d5a30	-0.061853588
4	0x3dc23700	0.09483147
5	0xbe5931d2	-0.21210411
6	0xbdd6bc4c	-0.104851335
7	0x3e24fbac	0.1611163
8	0xbe5069f0	-0.20352912
9	0xbe523aa4	-0.20530182
10	0x3e68388a	0.22677818
11	0xbd2b6ca8	-0.04185167
12	0xbe2a2524	-0.1661573
13	0xbdfa907c	-0.122345895
14	0x3e094a62	0.13407281
15	0x3e6b715e	0.22992465
