best_model.pth (torch, 9890 bytes, 13 tensors)

network.0.weight f4 [32, 9]
0	0xbe86602a	-0.26245242
1	0xbe8a18f9	-0.26972178
2	0xbd24d8c3	-0.040245783
3	0x3e8c5fb7	0.27416775
4	0x3e3a0c9b	0.18168871
5	0x3e59f7be	0.21285912
6	0x3dc6f326	0.09714346
7	0xbdd4d2d6	-0.10391776
8	0xbe61e3b3	-0.22059517
9	0x3d630555	0.055425007
10	0xbde3fa5b	-0.11131736
11	0xbe3dfaaf	-0.1855266
12	0x3ea84f1a	0.3287285
13	0xbea9ffce	-0.33202976
14	0x3d294ac6	0.041331075
15	0x3e9d68dd	0.30744067
16	0x3e7e68cf	0.24844669
17	0xbc884861	-0.016636075
18	0xbe8d451b	-0.27591786
19	0x3d9805cf	0.07422983
20	0x3e9608f8	0.29303718
21	0x3d936dfb	0.071987115
22	0xbe0004c0	-0.12501812
23	0xbe3b615e	-0.18298861
24	0xbea4d02d	-0.32190076
25	0x3daca0ea	0.084291294
26	0x3e8e6526	0.27811545
27	0x3d0b1571	0.033955995
28	0x3e3abcaf	0.1823604
29	0xbdf3df80	-0.119078636
30	0xbd5eb8bf	-0.054375406
31	0xbd826452	-0.06366791
32	0xbe834d2e	-0.2564482
33	0xbe4e9a3f	-0.20176028
34	0x3d54cd6c	0.051953718
35	0x3e42c4bb	0.19020359
36	0xbe70180e	-0.23446676
37	0x3e5c463c	0.21511167
38	0x3e9e3294	0.30897963
39	0x3e5e48c2	0.21707442
40	0xbd75153f	-0.059834715
41	0xbeafff01	-0.3437424
42	0xbdc6bedf	-0.097043745
43	0xbea5e07d	-0.32397833
44	0xbe2e9eb3	-0.17052726
45	0x3dff1467	0.12455063
46	0x3ddcb6fe	0.107770905
47	0x39b6ad28	0.00034842757
48	0xbe28f656	-0.1650022
49	0x3dd78970	0.10524261
50	0x3df9b894	0.121934086
51	0x3e6e075f	0.23245
52	0xbe7d6ac8	-0.24747765
53	0xbcff7f7b	-0.031188717
54	0xbd9dbd87	-0.07702165
55	0x3e61c619	0.22048225
56	0x3df45544	0.119303256
57	0xbdaf06e1	-0.08546234
58	0x3d9a16ca	0.07523878
59	0xbe3badad	-0.18327971
60	0x3e59cf12	0.21270397
61	0x3df3b3f3	0.11899557
62	0xbe7a96df	-0.24471615
63	0xbe5c09c3	-0.21488099
64	0xbe693835	-0.22775348
65	0x3ec3fdfe	0.38279718
66	0xbe2eac08	-0.17057812
67	0x3e00dcfd	0.125843
68	0x3dabee07	0.083950095
69	0xbe019a64	-0.12656552
70	0x3e60530d	0.21906681
71	0x3d34c641	0.044134382
72	0xbdd9a193	-0.10626521
73	0x3e388e30	0.1802299
74	0xbe8e2ed6	-0.27770108
75	0xbd0028bb	-0.031288844
76	0xbe53f201	-0.20697786
77	0xbe144a3d	-0.14481445
78	0x3e8462a0	0.25856495
79	0x3e8b5a6c	0.27217424
80	0x3e75cd2b	0.24004047
81	0xbe2f73c9	-0.17134012
82	0xbe219052	-0.1577771
83	0xbed1f5f4	-0.4100796
84	0x3e8d6a08	0.27619958
85	0x3ca0807d	0.019592518
86	0x3d1e2957	0.038613643
87	0x3ea95e1d	0.33079615
88	0xbdc010da	-0.09378214
89	0xbbb5515f	-0.005533382
90	0x3e6f6231	0.23377301
91	0x3e902d14	0.28159392
92	0x3ea39e26	0.31956595
93	0xbe9b65be	-0.3035106
94	0x3a5db841	0.0008457937
95	0x3df99bd5	0.12187926
96	0x3e6f3560	0.23360205
97	0xbd553801	-0.052055363
98	0x3d9e825e	0.07739709
99	0xbe75e09a	-0.2401146
100	0xbde517da	-0.1118619
101	0x3e38389b	0.17990343
102	0xbe5b5cfa	-0.21422186
103	0xbe1cf5de	-0.15328166
104	0x3e7962af	0.24354051
105	0x3e1c2056	0.1524671
106	0xbe8b21c9	-0.27174214
107	0xbe93fd8c	-0.28904378
108	0x3e4656ad	0.19369002
109	0xbcd329bb	-0.025776735
110	0xbe061894	-0.13095313
111	0x3da5c467	0.080941014
112	0x3e95aa31	0.29231408
113	0x3ddf8118	0.109132946
114	0x3dea3458	0.11435765
115	0xbd3e0107	-0.0463877
116	0x3e7ddf32	0.24792174
117	0xbe8f2227	-0.27955744
118	0xbe81a2ad	-0.25319424
119	0x3e001ca9	0.12510933
120	0xbc74c832	-0.014940308
121	0xbd16bf87	-0.03680375
122	0xbe4c16fd	-0.19930644
123	0x3e78a967	0.24283372
124	0x3e8bd4a9	0.27310684
125	0xbe564c5d	-0.20927568
126	0x3e7db929	0.24777664
127	0x3c44f0a6	0.012020266
128	0xbeb7f60d	-0.3592991
129	0x3e3c09fe	0.18363187
130	0xbe802cf6	-0.25034302
131	0xbe8111bb	-0.2520884
132	0x3d932411	0.071846135
133	0x3d3cf4e3	0.04613198
134	0xbbb74dfe	-0.005594014
135	0x3e56f7ff	0.2099304
136	0xbe41593e	-0.188817
137	0x3dba1eed	0.0908793
138	0xbea5f4d2	-0.32413346
139	0xbd872d51	-0.0660044
140	0x3e19ae72	0.15007952
141	0xbdeef285	-0.11667351
142	0xbe6d8b1b	-0.23197596
143	0xbdd31865	-0.10307387
144	0x3db80edd	0.0898721
145	0xbdff94a2	-0.12479521
146	0x3dccbdf4	0.09997168
147	0xbd7b2b05	-0.061320323
148	0x3e1c422b	0.15259616
149	0x3e542d2c	0.20720357
150	0xbe747a87	-0.23874865
151	0x3e40c7bf	0.18826197
152	0xbe99040f	-0.2988591
153	0xbe7bee0d	-0.24602528
154	0x3e7df8fc	0.24802011
155	0xbd11327f	-0.035448547
156	0x3e06317f	0.13104819
157	0x3e81c197	0.2534301
158	0x3e092093	0.13391332
159	0xbe0675f0	-0.13130927
160	0x3d184bb8	0.037181586
161	0x3e8cfa29	0.27534607
162	0xbe3b850a	-0.18312469
163	0xbd8df227	-0.069309525
164	0xbe0aaa2f	-0.13541482
165	0xbd82f056	-0.06393497
166	0x3e70aa9d	0.23502584
167	0x3a1ef634	0.0006063909
168	0x3e3b1d94	0.18273002
169	0x3d027cac	0.031857178
170	0xbe9f272f	-0.31084582
171	0x3b8497e1	0.0040464257
172	0x3e927555	0.28605142
173	0x3e9d3edd	0.30712023
174	0x3e5e75b4	0.21724588
175	0x3dbae3c4	0.09125474
176	0xbdf28893	-0.11842456
177	0x3c94b2f9	0.018151747
178	0xbd9367f7	-0.07197564
179	0xbdea4632	-0.1143917
180	0xbc32fb9f	-0.010924249
181	0x3e5c8821	0.21536304
182	0xbdd549e1	-0.10414482
183	0x3e7ec290	0.24878907
184	0x3e8cd264	0.27504265
185	0x3e03a5ee	0.12856266
186	0x3dccd4a2	0.10001494
187	0xbbb75171	-0.0055944254
188	0xbe02e6bc	-0.1278333
189	0xbd773b85	-0.060359497
190	0xbdb8bed5	-0.09020773
191	0x3e3595ab	0.17732875
192	0xbeb2e0e4	-0.34937203
193	0x3ecb890f	0.39753005
194	0x3e89facd	0.26949158
195	0x3dbe4474	0.092904
196	0x3e146eaa	0.1449534
197	0x3e527c91	0.20555331
198	0x3e140998	0.14456785
199	0xbdff14f5	-0.12455169
200	0xbe038eeb	-0.12847488
201	0x3d2f7eda	0.042845584
202	0x3e4e658c	0.20155925
203	0xbe1ea3c1	-0.15492155
204	0xbcdceab8	-0.026967391
205	0x3ea52210	0.3225255
206	0x3ba96d3a	0.0051704915
207	0x3d44622e	0.047945194
208	0xbe26faa5	-0.16306551
209	0x3d8d6b54	0.06905237
210	0xbd7df88a	-0.062004603
211	0x3e08f75f	0.13375615
212	0xbe683499	-0.22676314
213	0xbe19ceda	-0.15020314
214	0x3e479a2f	0.1949241
215	0xbd3175f2	-0.043325372
216	0x3eade83b	0.3396624
217	0xbe4492ea	-0.19196668
218	0xbea82dce	-0.32847446
219	0x3e5d46f8	0.21609104
220	0x3e05746a	0.1303269
221	0x3e0a8aa7	0.13529454
222	0xbe386f03	-0.18011098
223	0xbd78206a	-0.060577787
224	0xbe7e947b	-0.24861328
225	0x3e34687f	0.17617987
226	0xbe880bfa	-0.26571637
227	0xbebb155b	-0.3653973
228	0xbdb69776	-0.08915608
229	0xbe52cf27	-0.20586835
230	0x3db904b4	0.090341
231	0x3e8e0532	0.2773834
232	0x3dce3a80	0.10069752
233	0xbe11e802	-0.1424866
234	0x3e898354	0.26858008
235	0xbde42b9a	-0.11141129
236	0x3d966bd7	0.073447876
237	0xbdec4860	-0.11537242
238	0xbd84af61	-0.06478763
239	0xbe4e9df5	-0.20177443
240	0x3e3452f1	0.17609765
241	0x3e82c569	0.25541237
242	0xbe37692e	-0.17911217
243	0x3e510458	0.20411813
244	0xbd2468b3	-0.04013891
245	0xbe2c602b	-0.1683356
246	0xbe3231c0	-0.1740179
247	0xba8a0a4a	-0.0010531631
248	0x3e044c2b	0.12919681
249	0x3e095db1	0.13414647
250	0xbdf9b3b2	-0.12192477
251	0x3ea258b7	0.3170831
252	0xbe6466f2	-0.22304896
253	0xbcc26cbc	-0.02373349
254	0x3eacf138	0.33777785
255	0x3e878952	0.26471955

network.0.bias f4 [32]
0	0xbe18b106	-0.14911279
1	0xbdbd42ae	-0.09241234
2	0xbe1489fd	-0.14505763
3	0x3ce94026	0.028472971
4	0xbd555f87	-0.052093055
5	0xbdea6647	-0.11445289
6	0x3e9ebf76	0.31005448
7	0xbd360f87	-0.0444484
8	0x3dd0f274	0.10202494
9	0x3d98a2a7	0.074528985
10	0xbe8c18ea	-0.27362758
11	0x3ea28830	0.31744528
12	0xbe144b54	-0.1448186
13	0xbe965add	-0.29366198
14	0xbe06bdaa	-0.13158289
15	0x3e675354	0.22590381
16	0x3e8a7fc4	0.27050602
17	0x3ea78f8d	0.32726708
18	0xbdc23f1f	-0.09484696
19	0xbe84621d	-0.25856104
20	0x3c8bec24	0.017080374
21	0xbde33fda	-0.11096163
22	0x3e6b1727	0.2295805
23	0xbe9e9e09	-0.30979946
24	0xbe8f74f9	-0.2801893
25	0x3b223ff3	0.0024757355
26	0x3e6a1ecb	0.22863309
27	0xbe6ef47b	-0.2333545
28	0x3e9c1867	0.30487368
29	0x3e4cf8b5	0.20016749
30	0x3e187897	0.14889751
31	0xbea99cab	-0.3312734

network.2.weight f4 [32]
0	0x3f6c0cc3	0.9220697
1	0x3f83f185	1.0308081
2	0x3f78d0ca	0.97193587
3	0x3f725d39	0.94673496
4	0x3f7d6d4e	0.9899491
5	0x3f81ef0f	1.015108
6	0x3f8222b2	1.0166838
7	0x3f7bd248	0.9836774
8	0x3f789df9	0.9711605
9	0x3f792d75	0.97334987
10	0x3f831925	1.0242049
11	0x3f71ce27	0.9445519
12	0x3f757fa4	0.9589789
13	0x3f82339a	1.0171998
14	0x3f7dddd2	0.99166596
15	0x3f812dbb	1.0092081
16	0x3f7e5ba1	0.99358565
17	0x3f7420c3	0.9536249
18	0x3f7cf23e	0.9880713
19	0x3f6eefd3	0.9333469
20	0x3f738dc9	0.9513822
21	0x3f7d9626	0.99057233
22	0x3f70a74a	0.9400526
23	0x3f6cd453	0.9251148
24	0x3f775343	0.9661142
25	0x3f7bd565	0.9837249
26	0x3f7b53d1	0.9817477
27	0x3f6ee736	0.9332155
28	0x3f8333c6	1.0250175
29	0x3f8179b2	1.0115263
30	0x3f7001a2	0.9375249
31	0x3f754de9	0.95822006

network.2.bias f4 [32]
0	0x3cb8e549	0.02257027
1	0xbb8a7603	-0.004225494
2	0xbd17e340	-0.037081957
3	0x3c9cad34	0.019125558
4	0xbc2a01fc	-0.01037645
5	0xbd4db499	-0.05022106
6	0x3cdf3479	0.0272467
7	0xbd1367d3	-0.035987686
8	0x3c90eb92	0.017690454
9	0x3d63edb6	0.05564662
10	0x3bcdadfc	0.006276844
11	0xbc2e0510	-0.010621324
12	0x3c8ed420	0.017435133
13	0x3c20c1e6	0.009811854
14	0x3d1b3fa4	0.03790249
15	0xbd1f6f48	-0.038924485
16	0x3cf10356	0.029420536
17	0xba4149e9	-0.0007373379
18	0xbc96b8dd	-0.018398697
19	0xbbd341db	-0.0064470596
20	0x3c0b5ee7	0.008506513
21	0x3cf7b3f4	0.030237176
22	0x3ba6901b	0.0050830967
23	0xbb51216d	-0.0031910792
24	0x3c1feee2	0.009761544
25	0x3cc7b2a4	0.024377175
26	0x3b3b49dc	0.002857796
27	0xbc8b191b	-0.016979745
28	0xbd0fdd34	-0.035123065
29	0x3cc6255b	0.024187734
30	0x3ccc4d15	0.0249391
31	0xbb58f3e4	-0.0033104355

network.2.running_mean f4 [32]
0	0x3b145201	0.0022631886
1	0x3e1f4396	0.15553126
2	0x3ee338b4	0.443792
3	0x3f052dc2	0.52022946
4	0x3d84da75	0.0648698
5	0x3cf4deb0	0.029891342
6	0x3e93bd99	0.2885559
7	0x3e20e385	0.15711792
8	0x3f3516f0	0.70738125
9	0x3e05cd51	0.13066603
10	0x3e4ad2b4	0.1980694
11	0x3dd91551	0.10599769
12	0x3ee2f94a	0.44330817
13	0x3cb1af1f	0.02168995
14	0x3e2662d7	0.16248642
15	0x3e2343b8	0.15943801
16	0x3e3e0d2d	0.18559714
17	0x3f5f9b60	0.8734646
18	0x3cb29fcb	0.02180471
19	0x3cfb6470	0.03068754
20	0x3e0cc69b	0.13747637
21	0x3ee5bcd9	0.44870642
22	0x3ecc162b	0.39860663
23	0x3d32d47c	0.043659672
24	0x3cf435d9	0.029810833
25	0x3dc2a788	0.0950461
26	0x3e966bcd	0.2937912
27	0x3ef27a4c	0.4735893
28	0x3e764c8c	0.24052638
29	0x3f1fc00d	0.6240242
30	0x3ef9c1a7	0.48780558
31	0x3c78ec08	0.015192993

network.2.running_var f4 [32]
0	0x3983048b	0.00024989652
1	0x3db7b8dc	0.08970806
2	0x3f3e2f52	0.74290955
3	0x3ecdb7ab	0.4017919
4	0x3d04b39d	0.032397855
5	0x3b4fd379	0.003171174
6	0x3d917723	0.07102802
7	0x3d7eaac3	0.06217457
8	0x3f312a77	0.6920542
9	0x3d864eb1	0.06557978
10	0x3dc4eb87	0.09615236
11	0x3d02c1af	0.031922992
12	0x3f248b57	0.64275116
13	0x3c439b11	0.011938826
14	0x3d6c4323	0.057681214
15	0x3d3573b8	0.04429981
16	0x3d32ce15	0.043653566
17	0x3f72544f	0.94659895
18	0x3b9e1cbf	0.004825204
19	0x3c1d9781	0.009618641
20	0x3d331e39	0.043729994
21	0x3efe1bd7	0.49630615
22	0x3dd3fa05	0.10350422
23	0x3cdc1dfa	0.026869763
24	0x3c2a7898	0.010404728
25	0x3d1588d3	0.03650744
26	0x3ddff3f0	0.10935199
27	0x3f7d8c97	0.9904265
28	0x3d941d87	0.072321944
29	0x3e86b6b2	0.2631126
30	0x3f104ee4	0.5637038
31	0x3b23fec8	0.0025023688

network.4.weight f4 [16, 32]
0	0xbdb7edbf	-0.08980893
1	0x3d43f940	0.047845125
2	0x3ddc2996	0.107501194
3	0xbd99f156	-0.07516734
4	0xbd619894	-0.05507715
5	0x3d82f8d0	0.063951135
6	0x3dc10ab8	0.094258726
7	0x3da6e44c	0.08149013
8	0x3da9044c	0.08252773
9	0x3e02b69d	0.12764974
10	0x3da823a0	0.0820992
11	0x3bdf44fd	0.006813644
12	0x3a65b299	0.000876227
13	0xbd5d1b06	-0.05398085
14	0xbdf057a5	-0.11735467
15	0x3e145620	0.14485979
16	0x3d8c1187	0.068392806
17	0xbb6d96c1	-0.0036253186
18	0x3db5eff1	0.08883656
19	0x3d3d3aeb	0.046198767
20	0xbd427744	-0.04747702
21	0x3ba01760	0.004885599
22	0xbdd219f6	-0.10258858
23	0xbe4b3030	-0.19842601
24	0xbdf2f2bb	-0.118627034
25	0xbd86e75c	-0.06587097
26	0xbe06c7d8	-0.13162172
27	0x3d99bd81	0.07506848
28	0x3da5b1b5	0.080905356
29	0xbe200fec	-0.15631074
30	0xbdb1b6c4	-0.08677438
31	0xbcefa8d9	-0.029255318
32	0xbbf5a731	-0.0074967374
33	0x3d988d8c	0.07448873
34	0x3d305a72	0.043055005
35	0xbd557217	-0.052110758
36	0xbc957c61	-0.018247785
37	0xbe727f7b	-0.23681442
38	0xbd082d63	-0.03324641
39	0xbe0fb699	-0.14034499
40	0xbd969482	-0.07352544
41	0x3d547465	0.051868815
42	0x3d9836d7	0.07432335
43	0xbd52aeeb	-0.051436346
44	0x3d86c728	0.06580955
45	0xbc44ed10	-0.012019411
46	0xbdeaa325	-0.114568986
47	0x3e072faf	0.13201784
48	0xbe3275ba	-0.17427722
49	0xbd888bd5	-0.06667296
50	0x3d5a0b6f	0.05323356
51	0xbd12c9bb	-0.035836916
52	0xbcf83917	-0.03030066
53	0xbd83a6ba	-0.06428285
54	0xbd4f7430	-0.050647914
55	0x3d14308b	0.036179107
56	0x3d12d9fb	0.035852414
57	0xbe03d029	-0.12872376
58	0xb679cc39	-3.7222765e-06
59	0x3b2676ba	0.0025400356
60	0xbe25cf6e	-0.1619241
61	0xbd72a94d	-0.05924349
62	0x3dda3cd5	0.10656134
63	0xbd8feb21	-0.07027269
64	0xbd9f83a3	-0.077887796
65	0xbd88aed3	-0.0667397
66	0xbd832bac	-0.06404814
67	0x3d8b845b	0.06812354
68	0x3e2e9467	0.17048799
69	0xbe033d1a	-0.12816277
70	0xbd01948e	-0.031635813
71	0xbd89498e	-0.067034826
72	0xbd1b5846	-0.03792598
73	0x3e2740cc	0.16333312
74	0x3cc23eb7	0.023711545
75	0xbd1c131e	-0.03810417
76	0xbd819b79	-0.06328482
77	0xbd232c95	-0.03983744
78	0x3c2e4e9a	0.010638857
79	0x3db93519	0.09043331
80	0x3dce02ba	0.10059114
81	0xbe0ca0a8	-0.1373316
82	0xbd066797	-0.032813635
83	0xbd71283e	-0.05887627
84	0x38eeeaab	0.00011392435
85	0x3c523a7d	0.0128313275
86	0x3df31e0c	0.11870965
87	0xbdef24c1	-0.11676932
88	0xbc33ba2e	-0.010969682
89	0x3d72be38	0.059263438
90	0xbd3967d8	-0.04526505
91	0x3e07fe5b	0.13280623
92	0x3c2170f3	0.009853589
93	0xbcde888d	-0.027164722
94	0x3de74d25	0.11294011
95	0xbe13d05e	-0.14434955
96	0x3d779fea	0.06045524
97	0xbda44845	-0.08021597
98	0xbe172482	-0.1476002
99	0xbb679ce2	-0.0035341312
100	0x3de70add	0.11281369
101	0xbd3fc26c	-0.046816275
102	0x3e4a44fb	0.19752876
103	0x3decd356	0.11563747
104	0xbd7bf98d	-0.061517287
105	0x3a43c046	0.00074673106
106	0xbe68e06f	-0.22741865
107	0x3d8bbe8a	0.06823452
108	0xbc67834c	-0.014130425
109	0x3b880064	0.004150437
110	0x3d93beb2	0.072141066
111	0xbde2a943	-0.1106744
112	0x3d35acdb	0.0443543
113	0xbe5f8cb9	-0.21831025
114	0xbd713f6d	-0.05889838
115	0x3d6f55fa	0.058431603
116	0xb95229ff	-0.00020042805
117	0xbde73192	-0.11288752
118	0xbdce0fc8	-0.10061604
119	0xbdb035aa	-0.086039856
120	0xbd18ffb6	-0.03735324
121	0x3e0d908d	0.13824673
122	0x3df895f5	0.12137977
123	0xbdf047da	-0.117324546
124	0xbd6755b8	-0.056478232
125	0xbe0298b4	-0.12753564
126	0x3e0a1fa7	0.13488637
127	0x3dd4fe5a	0.10400076
128	0xbd5a7a30	-0.053339183
129	0x3da948da	0.082658485
130	0xbd7e52e4	-0.06209077
131	0x3dc92ccb	0.09822997
132	0xbcab1ccb	-0.020887753
133	0xbe260254	-0.16211826
134	0x3dac3af0	0.08409679
135	0x3df9f96e	0.12205778
136	0x3c53de6b	0.012931447
137	0x3d9cb59e	0.07651828
138	0xbe034aea	-0.12821546
139	0x3d8aa5f1	0.06769932
140	0xbe035910	-0.12826943
141	0xbd8d01e2	-0.06885125
142	0x3d3bd630	0.045858562
143	0x3e1aeed9	0.15130176
144	0x3e02ff6f	0.12792753
145	0xbdae3b75	-0.08507434
146	0x3a03dab2	0.00050298416
147	0xbcfece95	-0.031104365
148	0x3de8d6ff	0.11369132
149	0x3e206dd6	0.15666899
150	0x3d8898d9	0.066697784
151	0xbde47f92	-0.111571446
152	0x3e1fb617	0.15596806
153	0xbdf727de	-0.12068151
154	0xbe436a2f	-0.19083475
155	0x3d4995bc	0.049215063
156	0x3e29630d	0.16541691
157	0xbe15ef1c	-0.14641994
158	0x3db347f0	0.08753955
159	0x3c5afa01	0.01336527
160	0xbdac6dff	-0.084194176
161	0x3c8cc80a	0.01718523
162	0xbd1840e8	-0.037171274
163	0x3e143c64	0.14476162
164	0xbd8ea59c	-0.06965181
165	0xbe0d1a0f	-0.13779472
166	0xbb9383cf	-0.004501797
167	0xbe02233f	-0.12708758
168	0x3e008547	0.12550841
169	0x3e09c6cd	0.13454743
170	0x3d255b31	0.04037017
171	0x3dd41179	0.10354895
172	0xbdae6721	-0.08515764
173	0x3e0540ae	0.13012955
174	0xbd2b7b56	-0.04186567
175	0x3d1a6149	0.037690435
176	0x3d057b4f	0.0325883
177	0x3dee6b96	0.11641614
178	0xbd3b20be	-0.045685522
179	0xbe4746ec	-0.19460648
180	0x3df19874	0.11796656
181	0xbe319752	-0.1734288
182	0x3e57df1c	0.21081203
183	0xbbed7892	-0.007247039
184	0xbe2bd0f3	-0.16778927
185	0xbd822a00	-0.06355667
186	0xbda2f85d	-0.07957528
187	0xbcff8f29	-0.031196194
188	0xbe11ee92	-0.14251164
189	0x3e0f0c3b	0.1396951
190	0xbe1436e1	-0.1447406
191	0xbdd4b357	-0.10385769
192	0x3dc1b7df	0.09458899
193	0x3e594618	0.21218145
194	0xbd1f7c13	-0.038936686
195	0x3d0a8147	0.033814695
196	0x3dad1e74	0.08453074
197	0xbd6d9e16	-0.05801209
198	0xbd000a98	-0.031260103
199	0xbe1201d1	-0.14258505
200	0x3dd2027c	0.1025438
201	0x3d824fd2	0.06362881
202	0xbd80063a	-0.062511876
203	0x3d9f5683	0.07780173
204	0x3d3cf6da	0.046133853
205	0x3e520e5f	0.20513295
206	0x3d849fc0	0.064757824
207	0x3d6940fb	0.056946736
208	0x3dd3de33	0.103451155
209	0x3dbfcb5a	0.09364958
210	0xbc57ae1d	-0.01316407
211	0x3d540590	0.051763117
212	0xbc8d381f	-0.017238675
213	0xbd0d8c8e	-0.03455787
214	0x3d109446	0.035297655
215	0x3c24c32e	0.0100563
216	0xbd0012f8	-0.03126809
217	0xbc6bc779	-0.01439082
218	0x3cbcf1c4	0.023064502
219	0xbcb5170b	-0.022105714
220	0xbd0db057	-0.034592
221	0x3e347991	0.17624499
222	0xbd92a169	-0.07159693
223	0xbdbc7c45	-0.0920339
224	0xbe22456d	-0.15846796
225	0xbdb3d3e5	-0.0878065
226	0xbd7fb798	-0.062430948
227	0xbdb7c17d	-0.08972452
228	0x3d1569fb	0.036478024
229	0xbb8abd5a	-0.0042339982
230	0x3e1dade5	0.15398367
231	0xbd7c14ee	-0.061543398
232	0xbddd3f09	-0.108030386
233	0xbd16dddd	-0.03683268
234	0x3e120842	0.14260963
235	0xbdc06873	-0.09394922
236	0xbc66ef81	-0.014095188
237	0xbdf27750	-0.11839163
238	0xbe31d093	-0.17364721
239	0xbd8e02b1	-0.06934107
240	0xbde1319f	-0.109957926
241	0xbce8dd82	-0.028425936
242	0xbde1a668	-0.110180676
243	0x3be3ecf1	0.006955736
244	0x3dbf5b12	0.09343542
245	0x3dadc5df	0.084850065
246	0x3bab2533	0.0052229404
247	0xbde5fafa	-0.112295106
248	0x3c039959	0.008032166
249	0x3d2bb501	0.041920666
250	0x3dbb411a	0.091432765
251	0xbe12ef4b	-0.14349096
252	0xbd2c20a8	-0.04202333
253	0xbe123c07	-0.14280711
254	0x3d7b66fc	0.06137751
255	0x3d1721e3	0.03689755

network.4.bias f4 [16]
0	0x3e3c6d8c	0.18401164
1	0x3e0068e1	0.12540008
2	0x3c085e6b	0.008323292
3	0xbd405794	-0.04695852
4	0xbd9bc61b	-0.07606145
5	0x3de11e66	0.10992126
6	0x3e3ec502	0.1862984
7	0xbd74df45	-0.05978324
8	0x3de8d945	0.11369566
9	0xbd7fe014	-0.062469557
10	0xbdf5b106	-0.11996655
11	0xbdcbfb12	-0.09959997
12	0x3d1cffb2	0.038329788
13	0x3cdfe9ce	0.027333166
14	0x3e4a01a0	0.19727182
15	0xbd9f8750	-0.07789481

network.6.weight f4 [16]
0	0x3f730c9e	0.9494113
1	0x3f6d7c0d	0.9276741
2	0x3f77ff51	0.96873957
3	0x3f6c30d5	0.9226201
4	0x3f70e32b	0.9409663
5	0x3f73d480	0.95246124
6	0x3f698ddd	0.9123209
7	0x3f6ac1dc	0.91702056
8	0x3f744924	0.95424104
9	0x3f72507f	0.9465408
10	0x3f7e74bb	0.99396867
11	0x3f7784e6	0.9668716
12	0x3f7cea5a	0.9879509
13	0x3f6b1412	0.918275
14	0x3f66c135	0.9013856
15	0x3f819aa5	1.0125319

network.6.bias f4 [16]
0	0x3c8c3858	0.01711671
1	0xbbe709bd	-0.0070507214
2	0xbbd69ae0	-0.0065492243
3	0xbc69865b	-0.014253224
4	0x3c4d05ec	0.012513619
5	0xbca6adcf	-0.02034655
6	0xbc1dffcb	-0.009643505
7	0x3c54aa64	0.012980077
8	0x3c4d0fcb	0.012515972
9	0xbc6d6d2d	-0.014491362
10	0xbcad9185	-0.021187553
11	0xbc650bad	-0.0139798345
12	0xbbd0ce61	-0.0063722585
13	0x3c866bbd	0.016408795
14	0xbc6d666f	-0.014489754
15	0xbc17713a	-0.009243304

network.6.running_mean f4 [16]
0	0x3ebaca8a	0.3648265
1	0x3e7da159	0.2476858
2	0x3e2d324a	0.16913715
3	0x3ea733ea	0.32656795
4	0x3e3beadd	0.18351312
5	0x3e9a92fa	0.3019026
6	0x3e9c50b8	0.30530334
7	0x3e53a106	0.20666894
8	0x3e942ec0	0.28941917
9	0x3eb3d0c7	0.35120222
10	0x3e3f2c51	0.18669249
11	0x3e60bd8b	0.21947305
12	0x3ec2fe16	0.38084477
13	0x3e357683	0.1772099
14	0x3ecfb0d2	0.4056459
15	0x3e94f226	0.29090995

network.6.running_var f4 [16]
0	0x3e1b18e0	0.15146208
1	0x3d9f0260	0.07764125
2	0x3d506c07	0.050884273
3	0x3e5cd00c	0.21563739
4	0x3db959c7	0.09050327
5	0x3e19f7fd	0.15036006
6	0x3e45821e	0.19287917
7	0x3dbabe42	0.0911832
8	0x3e4aafd5	0.19793637
9	0x3eb756a9	0.35808304
10	0x3db9e872	0.090775385
11	0x3dd8b861	0.105820425
12	0x3ea099b1	0.31367257
13	0x3d4eebcf	0.050517853
14	0x3e518fdd	0.20465036
15	0x3e2dc03c	0.16967863

network.8.weight f4 [1, 16]
0	0xbd5b65df	-0.05356395
1	0x3d29c83f	0.041450735
2	0x3d62b691	0.05534989
3	0x3e10d326	0.14143047
4	0xbdb4150c	-0.08793077
5	0x3d9a4ba7	0.07533961
6	0x3e131342	0.14362815
7	0xbe10fdfa	-0.14159384
8	0xbdf48f69	-0.11941416
9	0x3e3aa90a	0.18228546
10	0x3d82c2df	0.06384825
11	0x3de2511e	0.11050628
12	0x3dcaf297	0.099095516
13	0xbd037181	-0.032090668
14	0x3d68d447	0.05684307
15	0x3da9953e	0.08280419
