best_model.pth (torch, 10146 bytes, 13 tensors)

network.0.weight f4 [32, 11]
-0.34516734 -0.05010088 0.09616759 0.22106114 -0.28924397 0.08920114 0.028752478 0.048292052
0.0021405888 0.0834604 -0.014308492 0.11143065 -0.26088613 -0.24011013 0.07127083 0.29535112
0.045205384 0.15259308 0.25559393 -0.1535513 0.0049570585 0.023512738 0.030585011 0.16752402
0.26983076 0.22735305 0.28037247 0.034273155 0.20707369 0.15166338 0.22370112 -0.21746285
-0.0833437 -0.24584824 0.062558085 -0.26494226 0.24477793 -0.31073874 0.07079996 0.17147745
0.15189207 0.12591834 0.01679623 -0.047189392 0.20177999 0.09121862 0.14590259 -0.24198847
-0.14042412 0.24030453 0.2471003 0.13313894 0.02679581 -0.13565311 0.014751575 -0.23179999
0.1794334 -0.14412934 0.1679636 0.1841363 0.10328557 -0.29467723 -0.10379337 0.0028640523
-0.085020185 0.014798085 -0.19247149 -0.09628153 -0.17862667 -0.060331922 0.2005418 0.015060687
0.2548326 -0.18213418 0.072288565 -0.13108566 -0.008421346 -0.15772058 -0.086837396 -0.26097536
0.28818673 -0.14333367 0.05832383 0.13417204 0.19768997 0.01768366 0.11344148 -0.20141968
-0.13232915 0.12896916 0.22274421 0.27463785 0.1840432 -0.24232924 0.27593765 0.008498139
-0.0844229 0.11338946 -0.04963619 -0.22239421 0.14265114 0.2166895 0.020125333 -0.19318306
0.2078004 0.17880034 0.20148914 0.23210225 0.12665008 -0.2617559 0.27771845 0.060116082
0.16267937 -0.22336987 -0.016426416 0.07344052 -0.025012586 0.058600932 0.19672552 -0.007476701
0.01925294 0.09052869 0.058361106 0.30330306 0.2683899 -0.006731639 -0.22760914 0.115693696
-0.20825107 -0.17381157 0.17538245 -0.14018254 0.1344657 0.2463069 0.19725676 0.17758472
-0.052027095 -0.1578886 0.18789911 0.29656872 0.15019096 0.29989964 0.059308723 -0.3493798
0.046529774 0.081552744 0.32066527 0.20174861 0.11507403 0.1403225 -0.2489757 -0.115174025
0.177467 0.11112558 -0.06285514 -0.23921874 0.12365797 0.27808502 0.22549371 0.028657615
-0.078060865 -0.3720981 0.15391862 0.12078834 0.14686288 -0.19017972 -0.02678434 0.06079808
0.015546027 0.2865326 -0.21769616 0.1319171 0.17507523 0.03694631 0.11019947 -0.27854016
-0.05616966 0.13508357 -0.2559762 -0.089412406 0.20626776 -0.09466947 0.24331631 0.16304934
0.1752608 0.2782874 -0.10341618 0.06891728 0.007083375 -0.20868087 0.06317522 -0.046916787
0.04916178 -0.10316599 0.17427547 0.04820355 0.22767432 0.09802514 -0.37382495 -0.27937588
0.04538879 0.21359126 0.070625775 0.1236631 0.1392399 -0.22307582 0.091363795 -0.120086186
-0.092941456 -0.14577213 0.064759396 -0.19851652 -0.29108855 0.11443329 -0.23946281 -0.20614554
0.2681041 -0.07111875 -0.17937364 -0.045579713 0.22482648 -0.15725307 0.23285875 -0.050381146
-0.03493848 0.21457061 -0.09873861 0.14982456 -0.25061747 0.28906935 -0.23300716 0.31109905
0.19628182 -0.10088273 -0.15869029 0.06960097 -0.075883806 -0.21184064 0.25891098 0.17310151
0.20996131 0.02198771 0.2804745 -0.007778888 -0.19435921 -0.042361654 -0.10289503 -0.2699783
-0.1282222 0.004181761 0.046976533 0.030298296 -0.2846773 0.23964584 -0.022652589 0.022702333
00000000: c6b9 b0be 9536 4dbd 83f3 c43d da5d 623e
00000010: c917 94be 16af b63d 518a eb3c e3cd 453d
00000020: 1f49 0c3b 49ed aa3d 2a6e 6abc c135 e43d
00000030: de92 85be 6edf 75be 71f6 913d 4338 973e
00000040: 4829 393d 5c41 1c3e 35dd 823e 8d3c 1dbe
00000050: d26e a23b c99d c03c 6b8d fa3c 6b8b 2b3e
00000060: 4227 8a3e 3dcf 683e fb8c 8f3e 0262 0c3d
00000070: 200b 543e a54d 1b3e e811 653e 95ae 5ebe
00000080: 1ab0 aabd a4bf 7bbe 741e 803d 83a6 87be
00000090: 11a7 7a3e 2619 9fbe 92ff 903d c997 2f3e
000000a0: 9889 1b3e bdf0 003e 3f98 893c aa49 41bd
000000b0: 6a9f 4e3e d4d0 ba3d 7d67 153e d3cb 77be
000000c0: 57cb 0fbe 6412 763e dc07 7d3e 9355 083e
000000d0: e382 db3c a6e8 0abe 97b0 713c fa5c 6dbe
000000e0: 64bd 373e a496 13be a6fe 2b3e 3a8e 3c3e
000000f0: 6387 d33d efdf 96be 9e91 d4bd d3b2 3b3b
00000100: 101f aebd ab73 723c 3f17 45be 402f c5bd
00000110: e9e9 36be 9b1e 77bd d45a 4d3e 1ac1 763c
00000120: 6b79 823e 6281 3abe 070c 943d 523b 06be
00000130: aff9 09bc 8181 21be ced7 b1bd 909e 85be
00000140: 368d 933e 10c6 12be f8e4 6e3d 6564 093e
00000150: 3d6f 4a3e 53dd 903c 0254 e83d f640 4ebe
00000160: 4b81 07be 7e10 043e 0f17 643e 559d 8c3e
00000170: d275 3c3e 2825 78be b347 8d3e c73b 0b3c
00000180: eae5 acbd bc38 e83d 514f 4bbd 4fbb 63be
00000190: 2413 123e dae3 5d3e e2dd a43c c8d1 45be
000001a0: a1c9 543e 7017 373e 2b53 4e3e 36ac 6d3e
000001b0: 8fb0 013e df04 86be 1d31 8e3e 483c 763d
000001c0: 6c95 263e 12bb 64be b190 86bc fc67 963d
000001d0: 32e7 ccbc 8807 703d 6a72 493e 1dff f4bb
000001e0: 57b8 9d3c 1b67 b93d 0e0c 6f3d 8a4a 9b3e
000001f0: 676a 893e 1595 dcbb 5f12 69be d1f0 ec3d
00000200: c53f 55be a9fb 31be 7597 333e 038c 0fbe
00000210: 60b1 093e e037 7c3e adfd 493e c5d8 353e
00000220: 5d1a 55bd 8dad 21be a068 403e dbd7 973e
00000230: a9cb 193e 728c 993e b4ed 723d e9e1 b2be
00000240: 0196 3e3d 2005 a73d 3d2e a43e 3097 4e3e
00000250: efab eb3d b4b0 0f3e 7cf3 7ebe 5ce0 ebbd
00000260: e9b9 353e cf95 e33d 32ba 80bd c2f5 74be
00000270: 6440 fd3d 2961 8e3e d3e7 663e 60c3 ea3c
00000280: 60de 9fbd a483 bebe d89c 1d3e e15f f73d
00000290: 3963 163e 79be 42be d56a dbbc 6807 793d
000002a0: c3b4 7e3c 67b4 923e beeb 5ebe 4715 073e
000002b0: ec46 333e 0455 173d 42b0 e13d d19c 8ebe
000002c0: 2812 66bd 5953 0a3e 500f 83be da1d b7bd
000002d0: db37 533e 11e2 c1bd e927 793e 68f6 263e
000002e0: 9177 333e b07b 8e3e ddcb d3bd 8124 8d3d
000002f0: a81b e83b 70b0 55be 0262 813d d12b 40bd
00000300: dd5d 493d b148 d3bd 4575 323e 1671 453d
00000310: 7523 693e 68c1 c83d fc65 bfbe 5b0a 8fbe
00000320: 99e9 393d abb7 5a3e 3fa4 903d 1443 fd3d
00000330: e894 0e3e fd6d 64be f11c bb3d bfef f5bd
00000340: 1758 bebd 4a45 15be 93a0 843d ea47 4bbe
00000350: 8f09 95be 005c ea3d bd35 75be d117 53be
00000360: f144 893e b5a6 91bd b9ad 37be cbb1 3abd
00000370: ea38 663e f306 21be 8672 6e3e 765c 4ebd
00000380: a71b 0fbd 66b8 5b3e 7837 cabd 9c6b 193e
00000390: ef50 80be e600 943e 6e99 6ebe 6048 9f3e
000003a0: 1afe 483e 9b9b cebd b57f 22be f48a 8e3d
000003b0: f868 9bbd c1ec 58be fb8f 843e 8641 313e
000003c0: 1900 573e 921f b43c 5b9a 8f3e 0be6 febb
000003d0: 1a06 47be 6a83 2dbd a1ba d2bd 993a 8abe
000003e0: ae4c 03be 2707 893b 776a 403d 2234 f83c
000003f0: 39c1 91be b865 753e ec91 b9bc 3efa b93c

network.0.bias f4 [32]
0.27019635 0.044627648 0.11320513 -0.012604091 0.09956647 -0.19892445 -0.23310198 0.08948061
-0.172759 -0.14366218 0.054762937 0.24059363 0.15021107 0.035097692 0.19193234 -0.11376183
0.19189283 -0.1509595 -0.07722676 -0.034515012 -0.123206414 -0.16520606 0.11525429 -0.0968751
-0.24998043 0.29680175 -0.22782713 -0.19282228 0.2024265 0.40037212 0.051676728 0.12120139
00000000: 2d57 8a3e 7bcb 363d 17d8 e73d 6481 4ebc
00000010: 81e9 cb3d dab2 4bbe 49b2 6ebe 9c41 b73d
00000020: bce7 30be 2e1c 13be 1a4f 603d 2d5e 763e
00000030: eed0 193e 99c2 0f3d e989 443e f6fb e8bd
00000040: 8e7f 443e 2195 1abe 1029 9ebd 9d5f 0dbd
00000050: a553 fcbd c72b 29be 710a ec3d 7466 c6bd
00000060: dffa 7fbe 66f6 973e 844b 69be 3473 45be
00000070: e448 4f3e 93fd cc3e faaa 533d 6f38 f83d

network.2.weight f4 [32]
0.9471924 0.91194254 0.9117957 0.979878 0.9061078 0.8990106 0.8755241 0.9436952
0.89631265 0.83616686 0.93781227 0.9209757 0.9216663 0.9731399 0.9423695 0.91214067
0.88534105 0.892697 0.9320248 1.003134 0.8837473 0.971429 1.0176486 0.90056723
0.8885552 0.9716909 0.8788034 0.8683441 0.945356 0.9553714 0.90702933 0.8739673
00000000: 337b 723f 1175 693f 716b 693f 49d9 7a3f
00000010: aef6 673f 8f25 663f 5922 603f 0296 713f
00000020: bf74 653f 080f 563f 7714 703f 10c5 6b3f
00000030: 53f2 6b3f b21f 793f 213f 713f 0d82 693f
00000040: b6a5 623f ca87 643f 2d99 6e3f b266 803f
00000050: 433d 623f 92af 783f 4f42 823f 938b 663f
00000060: 5b78 633f bcc0 783f 42f9 603f cd4b 5e3f
00000070: da02 723f 3893 743f 1333 683f 52bc 5f3f

network.2.bias f4 [32]
0.056957476 -0.020106984 -0.001806576 -0.016109737 -0.051370468 -0.0032173854 -0.022438582 0.018021533
0.043481153 0.023120834 -0.0030316554 -0.021354057 0.030990658 0.04037432 -0.0009803766 0.09947604
-0.066751264 0.01231624 0.03458708 -0.020518506 0.025569847 0.000378691 0.0006588003 0.0689466
-0.025977714 -0.016802713 0.04584766 0.102980845 -0.059516884 0.044148155 -0.09874199 0.03393596
00000000: 3e4c 693d 67b7 a4bc a2ca ecba 91f8 83bc
00000010: d769 52bd c5da 52bb 1ed1 b7bc e5a1 933c
00000020: 4b19 323d e767 bd3c bdae 46bb b4ee aebc
00000030: 1fe0 fd3c 8b5f 253d fb7f 80ba 18ba cb3d
00000040: e3b4 88bd 0eca 493c 2fab 0d3d 6d16 a8bc
00000050: db77 d13c 0c8b c639 57b3 2c3a e033 8d3d
00000060: 37cf d4bc d8a5 89bc c2ca 3b3d 9fe7 d23d
00000070: fac7 73bd b2d4 343d 3e39 cabd 6f00 0b3d

network.2.running_mean f4 [32]
0.34931868 0.14124359 0.17917463 0.09740476 0.3283196 0.068384744 0.014020321 0.045233097
0.11767962 0.06846419 0.281722 0.39298382 0.6360073 0.29580536 0.39078686 0.051278904
0.17580202 0.25384292 0.05244722 0.06137251 0.11681939 0.2736456 0.095915586 0.32249025
0.43976045 0.57232803 0.06239903 0.025469022 0.14753345 0.2615221 0.15153722 0.30692846
00000000: e6d9 b23e 29a2 103e 8e79 373e 267c c73d
00000010: 8219 a83e 4d0d 8c3d 7db5 653c 5746 393d
00000020: 0302 f13d f436 8c3d de3d 903e 2d35 c93e
00000030: 60d1 223f cd73 973e 3715 c83e d409 523d
00000040: 7205 343e b3f7 813e e5d2 563d be61 7b3d
00000050: 013f ef3d 471b 8c3e 646f c43d 711d a53e
00000060: 4828 e13e 1784 123f 2096 7f3d 69a4 d03c
00000070: 0213 173e 3ae6 853e 932c 1b3e ba25 9d3e

network.2.running_var f4 [32]
0.066660166 0.09138743 0.039564695 0.03070182 0.10984695 0.027470104 0.0033136893 0.0111634275
0.049909953 0.016800541 0.09430973 0.12770157 0.44745684 0.07703835 0.09830277 0.017464204
0.07273341 0.26763642 0.011056921 0.018162211 0.06816994 0.24304824 0.03371791 0.32807726
0.6602582 0.21849343 0.014102338 0.005122797 0.047850497 0.049050324 0.06306318 0.1737066
00000000: 2085 883d 5529 bb3d 970e 223d 6282 fb3c
00000010: 70f7 e03d fc08 e13c 7b2a 593b cfe6 363c
00000020: 616e 4c3d 4aa1 893c 7625 c13d 33c4 023e
00000030: 1019 e53e 48c6 9d3d f652 c93d 1711 8f3c
00000040: 41f5 943d a407 893e 1728 353c ebc8 943c
00000050: ae9c 8b3d a3e1 783e cb1b 0a3d bef9 a73e
00000060: ae06 293f bebc 5f3e 7e0d 673c 23dd a73b
00000070: e2fe 433d fee8 483d 4527 813d 25e0 313e

network.4.weight f4 [16, 32]
0.04009693 0.11652388 0.029257676 0.10420209 -0.12799858 0.16173293 -0.03323717 -0.047015704
0.07804035 -0.096679494 0.07232022 -0.0017491033 0.06515366 -0.1166512 0.036472496 -0.05567072
0.07617327 0.044886623 -0.14002278 -0.069454 0.10123304 -0.024055181 0.22575319 -0.11115223
-0.15592144 0.08544395 0.11842264 0.029209457 0.20593233 0.053587347 0.029824572 0.0035161949
0.07522712 -0.14288238 -0.13664001 0.16060074 0.107386015 0.06671811 0.13455246 -0.033019237
-0.006412363 -0.090693995 0.0060043656 -0.016670587 0.09263367 0.13080971 0.17759718 0.14511605
0.0067487317 0.030705156 0.121092066 -0.07352713 -0.11244878 0.12635593 -0.08205868 -0.05158347
-0.1561213 -0.16935372 -0.0003329054 0.13553856 -0.028721178 0.013436581 -0.20822696 0.103546925
-0.029673455 -0.058599323 -0.04800703 -0.047760483 0.010086163 -0.12846433 -0.049265247 -0.019071735
0.0512579 0.14702725 0.06270265 -0.14888631 0.16466595 0.05594251 -0.00081986 0.08545203
0.067345455 -0.02270068 -0.18515962 0.05009438 0.015513868 0.06593463 0.11933491 -0.031396803
0.033303287 0.12938322 -0.107298546 0.047834337 0.0013420465 -0.13355204 -0.08051803 0.09870308
-0.029621225 0.14503713 -0.005964713 0.11796103 -0.14930092 0.06273964 -0.017824741 0.14235666
-0.021764737 -0.12166694 -0.11584104 -0.023699673 -0.09013293 0.10727257 0.14900792 -0.018044822
-0.112603314 -0.047857612 -0.019825814 0.019216415 0.024163265 -0.11367629 -0.16790761 -0.043006707
-0.11422752 -0.06427368 -0.054121103 -0.05041861 -0.14447396 0.04351287 -0.04353345 0.0515485
0.17530917 0.06052061 -0.13196303 -0.1124398 -0.16408418 -0.024197873 -0.11133466 0.0074747684
0.12662771 0.10888104 0.103123575 -0.18633196 0.0024341247 -0.04308003 -0.09678071 0.114581004
-0.12541436 -0.06695823 -0.005829646 -0.134064 0.13268277 -0.04969176 -0.120793834 0.11381488
0.09056032 -0.014709494 0.17089507 0.112113394 -0.06943685 0.123263605 -0.17570522 -0.10592688
0.03821898 -0.05973106 0.10384372 0.08601925 -0.09702208 -0.06318224 -0.040769946 0.03422583
0.0768073 -0.039934434 -0.028359925 -0.14872277 -0.13669413 0.17332928 0.00063845114 -0.1300457
-0.0435118 -0.1280768 0.14458454 -0.18645161 0.008490599 -0.14753503 -0.082268685 -0.21564971
-0.021414747 -0.032673933 0.0040130466 0.024079591 -0.13583934 -0.08304516 0.008693836 -0.16376086
0.035558548 0.038694188 0.077521116 -0.04341531 -0.06595522 0.003730045 0.08945837 -0.04532162
-0.011152279 -0.011478878 0.020753922 0.01084412 -0.050961412 0.10021275 -0.01581558 -0.071177684
0.02079379 0.10444344 0.05197006 0.09024584 -0.067648135 0.08435306 -0.092576556 0.09882964
0.026656164 -0.035458323 -0.023822768 -0.08248059 -0.0007484377 0.060702175 -0.05343436 0.16594797
-0.04974471 -0.0831474 0.14331561 -0.056625627 -0.06253625 0.018475007 0.039430056 0.042737108
-0.15990101 -0.036158763 -0.23459122 0.11605064 -0.105397806 0.049004164 0.06917499 0.08807376
-0.040792897 -0.0004895244 -0.0286692 -0.020997934 0.05400554 -0.10761532 0.029005183 -0.030242903
-0.10933039 0.06285783 0.099149205 0.119266294 0.00055334304 0.14003684 -0.040970325 0.09258669
00000000: ae3c 243d 12a4 ee3d cbad ef3c e867 d53d
00000010: 0f12 03be 519d 253e b323 08bd 8a93 40bd
00000020: 9ed3 9f3d e6ff c5bd a01c 943d 2b42 e5ba
00000030: 486f 853d d3e6 eebd 2f64 153d fb06 64bd
00000040: bb00 9c3d 09db 373d 2262 0fbe e63d 8ebd
00000050: 4553 cf3d 5f0f c5bc d82b 673e c8a3 e3bd
00000060: dfa9 1fbe 3dfd ae3d 9287 f23d ac48 ef3c
00000070: eddf 523e 687e 5b3d a952 f43c f66f 663b
00000080: ad10 9a3d c24f 12be 5ceb 0bbe 8574 243e
00000090: 33ed db3d 81a3 883d 1fc8 093e 2e3f 07bd
000000a0: cd1e d2bb c6bd b9bd 45c0 c43b c190 88bc
000000b0: b9b6 bd3d fbf2 053e 09dc 353e 4d99 143e
000000c0: 7724 dd3b 6189 fb3c 1eff f73d 6495 96bd
000000d0: 8c4b e6bd 7363 013e 620e a8bd 3049 53bd
000000e0: 43de 1fbe 106b 2dbe ce89 aeb9 9fca 0a3e
000000f0: ad48 ebbc 1b25 5c3c 7339 55be 6910 d43d
00000100: bf15 f3bc d805 70bd 05a3 44bd 7fa0 43bd
00000110: 6f40 253c 278c 03be 5bca 49bd 543c 9cbc
00000120: cef3 513d 508e 163e 3f6a 803d a775 18be
00000130: 319e 283e f923 653d e0eb 56ba 7901 af3d
00000140: 6aec 893d c7f6 b9bc 7c9a 3dbe c42f 4d3d
00000150: e12d 7e3c bc08 873d dc65 f43d ef99 00bd
00000160: 0769 083d 097d 043e 57bf dbbd f0ed 433d
00000170: 9ce7 af3a dec1 08be a3e6 a4bd d724 ca3d
00000180: 36a8 f2bc 9d84 143e a473 c3bb 8d95 f13d
00000190: 57e2 18be a47d 803d 3105 92bc f2c5 113e
000001a0: f64b b2bc 842c f9bd 113e edbd d125 c2bc
000001b0: 9d97 b8bd b9b1 db3d 8895 183e bcd2 93bc
000001c0: 919c e6bd 5806 44bd bf69 a2bc be6b 9d3c
000001d0: 0af2 c53c 1dcf e8bd f9ef 2bbe cd27 30bd
000001e0: 1ef0 e9bd eba1 83bd 17ae 5dbd bf83 4ebd
000001f0: fbf0 13be 8d3a 323d 2250 32bd 8524 533d
00000200: 3f84 333e 76e4 773d 5121 07be d646 e6bd
00000210: af05 28be 9e3a c6bc 6d03 e4bd e7ee f43b
00000220: b2aa 013e 06fd de3d 7432 d33d cecd 3ebe
00000230: d685 1f3b af74 30bd f734 c6bd 72a9 ea3d
00000240: 9f6c 00be 6621 89bd 9d06 bfbb 1348 09be
00000250: fedd 073e 9689 4bbd c262 f7bd c717 e93d
00000260: b077 b93d 1700 71bc 1eff 2e3e b59b e53d
00000270: e834 8ebd a171 fc3d 12ec 33be 31f0 d8bd
00000280: 818b 1c3d 8ea8 74bd 04ac d43d dc2a b03d
00000290: 83b3 c6bd b165 81bd 63fe 26bd 6230 0c3d
000002a0: 254d 9d3d 4a92 23bd 1353 e8bc c84a 18be
000002b0: 8cf9 0bbe 3b7d 313e bb5d 273a b32a 05be
000002c0: 6e39 32bd 9126 03be f80d 143e 2ced 3ebe
000002d0: 271c 0b3c 6c13 17be 7c7c a8bd 47d3 5cbe
000002e0: fb6d afbc 1ad5 05bd e07f 833b 9042 c53c
000002f0: 7819 0bbe 9513 aabd 9770 0e3c edb0 27be
00000300: d7a5 113d cc7d 1e3d 64c3 9e3d 41d4 31bd
00000310: 8813 87bd c573 743b f335 b73d 2aa3 39bd
00000320: 0cb8 36bc e711 3cbc 2104 aa3c 89ab 313c
00000330: eabc 50bd 583c cd3d ad8f 81bc 9bc5 91bd
00000340: bd57 aa3c 71e6 d53d 8fde 543d d0d2 b83d
00000350: 1b8b 8abd 4cc1 ac3d c798 bdbd 3267 ca3d
00000360: 075e da3c bf3c 11bd f727 c3bc 95eb a8bd
00000370: ce32 44ba d8a2 783d fddd 5abd 44ee 293e
00000380: 1cc1 4bbd 2f49 aabd 54c1 123e 46f0 67bd
00000390: 0113 80bd e658 973c 6981 213d 1b0d 2f3d
000003a0: 17bd 23be 361b 14bd ae38 70be f5ab ed3d
000003b0: ceda d7bd 97b8 483d 9eab 8d3d 0460 b43d
000003c0: 7416 27bd 6d53 00ba acdb eabc dc03 acbc
000003d0: ea34 5d3d 6c65 dcbd 479c ed3c f7bf f7bc
000003e0: 9de8 dfbd 9bbb 803d bd0e cb3d e341 f43d
000003f0: 390e 113a d165 0f3e 80d0 27bd 179e bd3d

network.4.bias f4 [16]
0.08958198 0.16417629 0.01651037 -0.028294876 0.18069692 0.09256087 -0.008521992 0.17168447
-0.051379267 0.10905637 -0.049576193 0.18019848 0.14882497 0.064438045 -0.00477617 0.01735062
00000000: c276 b73d d41d 283e c140 873c a8ca e7bc
00000010: 9d08 393e 8e90 bd3d d39f 0bbc 0ece 2f3e
00000020: 1173 52bd f258 df3d 6810 4bbd f385 383e
00000030: 9365 183e 18f8 833d 6b81 9cbb e322 8e3c

network.6.weight f4 [16]
0.86486804 0.8473675 0.92839533 0.7922567 0.8698219 0.9379862 0.7554469 0.8627572
0.87962055 0.9099655 0.8904559 0.8712141 0.86225945 0.9730959 0.9807609 0.95779026
00000000: fe67 5d3f 14ed 583f 51ab 6d3f 56d1 4a3f
00000010: a6ac 5e3f dd1f 703f f864 413f a8dd 5c3f
00000020: d02e 613f 80f3 683f ebf4 633f e307 5f3f
00000030: 09bd 5c3f d01c 793f 2513 7b3f be31 753f

network.6.bias f4 [16]
-0.046572756 0.050299037 -0.05384 0.044291336 0.048033826 0.057914555 -0.03658875 0.049296334
-0.04384599 -0.043183684 0.04582018 -0.039463572 0.041354 -0.047965143 -0.05863421 0.050806172
00000000: 13c3 3ebd 5d06 4e3d 5587 5cbd d56a 353d
00000010: 1ebf 443d d037 6d3d 16de 15bd f4ea 493d
00000020: da97 33bd 60e1 30bd f1ad 3b3d 8ea4 21bd
00000030: d062 293d 1977 44bd 6d2a 70bd 221a 503d

network.6.running_mean f4 [16]
0.3004108 0.4172578 0.3067448 0.25550932 0.42194268 0.42795447 0.19708335 0.4004057
0.20934084 0.3473574 0.25236046 0.42721003 0.32566166 0.30506974 0.22737072 0.36471716
00000000: 72cf 993e d0a2 d53e a80d 9d3e 1ed2 823e
00000010: df08 d83e d91c db3e 38d0 493e fa01 cd3e
00000020: 725d 563e d4d8 b13e 6435 813e 46bb da3e
00000030: 20bd a63e 1a32 9c3e dfd3 683e 35bc ba3e

network.6.running_var f4 [16]
0.2172508 0.31587657 0.20378698 0.11334929 0.1971659 0.23246986 0.15296938 0.156969
0.12271528 0.25060368 0.12318394 0.46149248 0.24333109 0.20483674 0.11538608 0.23121257
00000000: fe76 5e3e 93ba a13e 89ad 503e ac23 e83d
00000010: dce5 493e 940c 6e3e 01a4 1c3e 7bbc 203e
00000020: 2652 fb3d 204f 803e dd47 fc3d be48 ec3e
00000030: c92b 793e b9c0 513e 8a4f ec3d fdc2 6c3e

network.8.weight f4 [1, 16]
0.072037034 -0.10829226 0.0743226 -0.019013109 -0.09986414 -0.047261484 0.01117926 -0.08749424
0.03999245 0.11774249 -0.08944914 0.10989772 -0.05479991 0.081532076 0.086997755 -0.07931173
00000000: 2788 933d 55c8 ddbd 7336 983d 61c1 9bbc
00000010: 9285 ccbd 4295 41bd 3729 373c 2e30 b3bd
00000020: 20cf 233d f922 f13d 1c31 b7bd 0e12 e13d
00000030: df75 60bd 4afa a63d e12b b23d 306e a2bd
