Submission/best_model.pth (torch, 10146 bytes, 13 tensors)

network.0.weight f4 [32, 11]
-0.09059143 -0.068715096 -0.21784376 -0.18842073 0.05949475 -0.09921783 0.24516198 0.16416052
-0.27711228 0.13175677 -0.17236799 0.02416467 -0.1788723 0.22391595 0.07345535 -0.011650888
0.19972514 -0.21754603 0.23553509 0.09135636 0.038124435 -0.08081775 -0.2246533 0.027617484
0.16766818 -0.018274056 0.12428407 0.031016847 -0.060531188 -0.36057395 0.13184556 0.14790179
0.08533126 -0.20307271 -0.112313874 0.09071822 0.06789608 0.15105517 0.13994412 0.105065174
-0.26013684 0.11864938 0.11977969 0.05714471 0.03308022 -0.0031992763 -0.08456215 0.013367613
-0.2509921 0.11183727 0.16741724 -0.12783109 -0.19729006 -0.078514196 0.03265932 -0.06994368
0.1560856 0.114768766 -0.26678267 0.105168186 0.08241587 0.024355892 0.24495484 0.047227442
0.19228514 -0.060472894 0.045105487 0.015288155 -0.03755387 -0.28397006 -0.047587294 0.09862381
0.0032108154 0.07422211 0.17255029 0.1761527 0.043451477 0.11678625 -0.27650625 -0.29731053
-0.016744688 -0.0017314197 -0.23770119 0.21846548 0.06293743 0.191387 -0.11270985 -0.09403435
0.28142044 0.16252874 0.056966245 -0.051209655 0.08996073 0.10991733 0.18130784 0.21975009
0.009881417 0.15754052 -0.14519173 0.08105923 0.3113578 0.15742655 -0.08232216 0.0010268742
0.20484444 0.0044314438 -0.19438156 0.120177396 0.19318984 0.08992 0.2699312 0.092720404
0.072232395 0.19502448 -0.21330723 0.22297524 -0.22937177 -0.07239443 -0.09139338 -0.03702767
-0.061628163 0.29187635 -0.06528926 -0.21365644 -0.06331153 -0.1742191 0.12174314 0.00041314712
0.34115848 -0.06298555 -0.063712314 0.06403611 0.05605379 -0.169719 -0.22500852 0.076096945
-0.11583059 -0.29728943 -0.0068010185 -0.21914928 0.1037522 0.111591145 -0.17254247 -0.17865023
0.18597414 -0.12582818 0.3025633 -0.30904803 0.27040267 -0.04522509 -0.08436293 -0.10120824
-0.09860322 -0.090534516 0.09260019 0.14866291 0.16840675 -0.2381863 0.11104737 0.086486675
-0.07330429 0.15150614 -0.011643652 0.27639827 0.068922624 0.13504685 0.35308394 0.15118562
-0.3429237 0.2456977 0.070354834 -0.29994842 0.008886954 0.22199543 0.074720345 0.093203984
-0.26577073 -0.21741673 -0.00031218654 0.23404688 0.21365915 0.043302845 0.038788904 -0.05779894
0.0028377392 0.31514 -0.22836381 -0.110148564 -0.21204148 0.09954414 0.116712175 -0.11778337
0.040515985 -0.13174781 -0.07405955 -0.1946807 -0.2090031 0.1674987 -0.26015183 0.20125824
-0.034453496 0.05229671 0.059207216 -0.21317638 0.08629524 0.007565826 0.06257565 0.18311574
0.1292815 0.02855631 4.6967554e-05 -0.11887372 -0.1293394 -0.012819872 -0.15949158 -0.07711242
0.125801 -0.019295888 0.07411826 -0.12955925 -0.22738059 -0.022358507 0.21080601 0.29404938
-0.18106078 0.0023386637 0.080725476 -0.10243593 0.09713277 -0.0032842476 0.05997066 0.09942254
0.25229624 0.28580424 -0.1568992 -0.16823252 0.061184026 -0.016302804 -0.207819 -0.16708411
0.0837282 -0.30475307 0.18747914 -0.16233748 0.14819412 -0.025509406 -0.28091925 0.079559825
0.15490422 0.25211838 -0.042370945 -0.35082594 -0.068320066 -0.08603936 0.0919732 -0.19584213
00000000: 0088 b9bd 80ba 8cbd 6f12 5fbe 5df1 40be
00000010: c4b0 733d b832 cbbd be0b 7b3e b219 283e
00000020: a9e1 8dbe 3feb 063e 3c81 30be fcf4 c53c
00000030: 4d2a 37be 394a 653e c26f 963d 5ee3 3ebc
00000040: bf84 4c3e 63c4 5ebe 1c30 713e 0b19 bb3d
00000050: 5e28 1c3d c783 a5bd 840b 66be 103e e23c
00000060: 35b1 2b3e 79b3 95bc a688 fe3d 0b17 fe3c
00000070: 8def 77bd 269d b8be 8602 073e 9173 173e
00000080: 28c2 ae3d 4bf2 4fbe d104 e6bd 79ca b93d
00000090: 1a0d 8b3d 35ae 1a3e 834d 0f3e 692c d73d
000000a0: a830 85be 72fe f23d 0e4f f53d 9210 6a3d
000000b0: 207f 073d f3aa 51bb ec2e adbd d503 5b3c
000000c0: 0982 80be f00a e53d 6d6f 2b3e 27e6 02be
000000d0: 6806 4abe 0dcc a0bd c7c5 053d a23e 8fbd
000000e0: e7d4 1f3e e30b eb3d bd97 88be 6b62 d73d
000000f0: a7c9 a83d 0286 c73c 71d5 7a3e 9071 413d
00000100: 65e6 443e 6db2 77bd 88c0 383d 2b7b 7a3c
00000110: 16d2 19bd 8664 91be e5ea 42bd 48fb c93d
00000120: 8b6c 523b c301 983d 06b1 303e 6061 343e
00000130: 2dfa 313d a12d ef3d 3a92 8dbe 1639 98be
00000140: 282c 89bc cef0 e2ba f167 73be 6ab5 5f3e
00000150: 57e5 803d f4fa 433e 6cd4 e6bd 1595 c0bd
00000160: 5716 903e ef6d 263e 7055 693d 37c1 51bd
00000170: 553d b83d 561c e13d c3a8 393e 2b06 613e
00000180: abe5 213c 4d52 213e 24ad 14be 6202 a63d
00000190: 4a6a 9f3e 6d34 213e 8598 a8bd 2e98 863a
000001a0: bec2 513e a535 913b f60b 47be 911f f63d
000001b0: 8fd3 453e fa27 b83d 6c34 8a3e 32e4 bd3d
000001c0: 94ee 933d 7fb4 473e 366d 5abe 9f53 643e
000001d0: 6fe0 6abe 8843 94bd 742c bbbd 53aa 17bd
000001e0: d06d 7cbd d170 953e 60b6 85bd c1c8 5abe
000001f0: 7aa9 81bd 7e66 32be 7854 f93d ab9b d839
00000200: 53ac ae3e 91fe 80bd 9a7b 82bd 5d25 833d
00000210: a998 653d d1ca 2dbe a268 66be b7d8 9b3d
00000220: 9738 edbd 5236 98be 14db debb ab68 60be
00000230: 097c d43d e689 e43d f9ae 30be 16f0 36be
00000240: 0170 3e3e 1ad9 00be 94e9 9a3e 8b3b 9ebe
00000250: 3872 8a3e f23d 39bd 79c6 acbd 4446 cfbd
00000260: 7cf0 c9bd 296a b9bd 2ba5 bd3d 173b 183e
00000270: d272 2c3e 1ce7 73be ce6c e33d ed1f b13d
00000280: 8f20 96bd 6d24 1b3e 04c5 3ebc 1384 8d3e
00000290: 4e27 8d3d b949 0a3e 6bc7 b43e 67d0 1a3e
000002a0: b293 afbe 2e98 7b3e 3216 903d d792 99be
000002b0: 969a 113c c552 633e fb06 993d bbe1 be3d
000002c0: 1a13 88be 7ea2 5ebe f8ac a3b9 fca9 6f3e
000002d0: 77c9 5a3e 535e 313d 1de1 1e3d 95be 6cbd
000002e0: 5df9 393b 085a a13e 34d8 69be 9295 e1bd
000002f0: 6721 59be ccdd cb3d cb06 ef3d 6838 f1bd
00000300: 17f4 253d e6e8 06be 89ac 97bd 615a 47be
00000310: e904 56be c784 2b3e 9f32 85be a416 4e3e
00000320: 1c1f 0dbd 1335 563d 4483 723d e94a 5abe
00000330: 8fbb b03d c0ea f73b aa27 803d b182 3b3e
00000340: 5f62 043e ecee e93c 07ff 4438 1174 f3bd
00000350: 8c71 04be 710a 52bc c351 23be 1eed 9dbd
00000360: fad1 003e 6912 9ebc 50cb 973d 2eab 04be
00000370: 75d6 68be 3029 b7bc 88dd 573e a48d 963e
00000380: ff67 39be 4444 193b 6653 a53d eec9 d1bd
00000390: 8ced c63d 883c 57bb cba3 753d 0b9e cb3d
000003a0: f92c 813e ef54 923e 2faa 20be 2545 2cbe
000003b0: 1a9c 7a3d 758d 85bc 81ce 54be 1918 2bbe
000003c0: b179 ab3d 9808 9cbe 88fa 3f3e cc3b 26be
000003d0: 33c0 173e 1af9 d0bc a6d4 8fbe 43f0 a23d
000003e0: 369f 1e3e a915 813e 288d 2dbd 759f b3be
000003f0: 64eb 8bbd 6735 b0bd 725c bc3d d78a 48be

network.0.bias f4 [32]
-0.09011719 -0.16030657 -0.16453724 0.32758316 0.07777291 -0.06756999 -0.006090407 -0.19257148
-0.013000784 0.0064594047 -0.08178588 0.29827848 -0.22303903 0.2703992 -0.23410028 0.3076331
0.034726467 -0.08031722 -0.116274096 -0.017566573 -0.12948658 -0.15007712 -0.13800803 0.089343876
0.24091937 0.27217868 -0.14517662 0.159809 -0.20930628 0.116015345 0.25293997 -0.12457965
00000000: 5c8f b8bd 6827 24be 737c 28be fbb8 a73e
00000010: 6747 9f3d 2362 8abd 0992 c7bb 7531 45be
00000020: 3e01 55bc 6aa9 d33b 5b7f a7bd f5b7 983e
00000030: 5864 64be c471 8a3e fcb7 6fbe 1682 9d3e
00000040: 573d 0e3d 5b7d a4bd 1d21 eebd c6e7 8fbc
00000050: 2198 04be d1ad 19be fa51 0dbe ecf9 b63d
00000060: 91b3 763e 015b 8b3e 2ea9 14be f8a4 233e
00000070: 6354 56be 7499 ed3d 5981 813e 9e23 ffbd

network.2.weight f4 [32]
0.90266776 0.9502252 0.9606071 0.95900583 0.9810297 0.95399654 0.9091651 0.8927205
0.952054 0.888523 0.94222504 0.98109204 0.8855566 0.94255406 0.9274102 0.9215968
1.0141456 0.86556363 0.89352536 0.9482109 0.93371594 0.9182898 0.91007596 0.9227307
0.98438793 0.92541236 0.9210546 0.9212444 0.8851677 0.8884195 0.9594379 1.0012864
00000000: 3c15 673f f541 733f 59ea 753f 6881 753f
00000010: c324 7b3f 1e39 743f 0bbf 683f 5589 643f
00000020: d0b9 733f 3e76 633f a935 713f d928 7b3f
00000030: d6b3 623f 394b 713f c16a 6d3f c5ed 6b3f
00000040: 86cf 813f 9495 5d3f 14be 643f f3bd 723f
00000050: 0208 6f3f 0a15 6b3f bdfa 683f 1438 6c3f
00000060: d900 7c3f d3e7 6c3f 3cca 6b3f acd6 6b3f
00000070: 5a9a 623f 766f 633f b99d 753f 272a 803f

network.2.bias f4 [32]
-0.048257027 0.005830886 -0.0013334863 -0.016789462 -0.009605519 -0.05523691 0.026163008 0.021702996
-0.037103515 -0.052334037 0.08079221 -0.01577551 -0.102019876 -0.003266863 0.053265523 0.055413906
-0.075871214 -0.016065154 -0.0012742302 0.047527928 0.011851478 -0.068944804 0.06693754 -0.0035826196
-0.060804002 0.04511384 -0.07312646 -0.009556002 0.011592691 0.11703257 0.010192709 -0.0028713332
00000000: 29a9 45bd 0411 bf3b 60c8 aeba 0e8a 89bc
00000010: 7760 1dbc 1940 62bd ce53 d63c 7bca b13c
00000020: dbf9 17bd 375c 56bd 6376 a53d a43b 81bc
00000030: ccef d0bd de18 56bb f32c 5a3d b1f9 623d
00000040: 5e62 9bbd 129b 83bc 1204 a7ba a5ac 423d
00000050: b42c 423c ef32 8dbd 8d16 893d 62ca 6abb
00000060: 9e0d 79bd 4ac9 383d 53c3 95bd c790 1cbc
00000070: 45ef 3d3c c6ae ef3d 52ff 263c fa2c 3cbb

network.2.running_mean f4 [32]
0.027023619 0.06950618 0.1584432 0.41095993 0.16709693 0.16847824 0.24082422 0.005533364
0.10651801 0.45163974 0.15879531 0.45630237 0.01311003 0.27195027 0.2982178 0.7711847
0.049920384 0.23333591 0.28599182 0.025017377 0.14900371 0.117154896 0.03670298 0.09337559
0.23187211 0.23313902 0.170738 0.2323829 0.044544794 0.41946304 0.673501 0.16657667
00000000: a360 dd3c 4259 8e3d ef3e 223e 5769 d23e
00000010: 751b 2b3e 8f85 2c3e a09a 763e 3951 b53b
00000020: 1d26 da3d 533d e73e 3d9b 223e 77a0 e93e
00000030: 74cb 563c 113d 8b3e 01b0 983e 5c6c 453f
00000040: 5179 4c3d 9cef 6e3e 856d 923e 3ef1 cc3c
00000050: 6e94 183e e8ee ef3d dd55 163d b43b bf3d
00000060: e26f 6d3e ffbb 6e3e f1d5 2e3e c8f5 6d3e
00000070: 9a74 363d dcc3 d63e 906a 2c3f 1393 2a3e

network.2.running_var f4 [32]
0.010070029 0.020782882 0.04767137 0.0800918 0.038607992 0.051385894 0.10693839 0.0013664155
0.03395345 0.07448702 0.07223252 0.43068653 0.0039235232 0.111077875 0.18311042 0.3358772
0.010998782 0.22344577 0.19523136 0.0042731385 0.035672475 0.02169123 0.007974427 0.020547088
0.035744656 0.07546111 0.13657108 0.08345837 0.017010976 0.28008503 0.498284 0.045912106
00000000: c3fc 243c dd40 aa3c 0e43 433d 2b07 a43d
00000010: 6a23 1e3d 047a 523d 8402 db3d 4c19 b33a
00000020: c612 0b3d a78c 983d a5ee 933d f282 dc3e
00000030: e690 803b cc7c e33d 4c81 3b3e 19f8 ab3e
00000040: 3c34 343c f8ce 643e bbea 473e af05 8c3b
00000050: 4d1d 123d ceb1 b13c 2ca7 023c 5e52 a83c
00000060: fd68 123d 5b8b 9a3d 4ad9 0b3e 39ec aa3d
00000070: 9a5a 8b3c 4e67 8f3e 151f ff3e 550e 3c3d

network.4.weight f4 [16, 32]
0.17425965 -0.026719168 -0.10596831 -0.048894405 -0.047618937 0.09486816 0.033399872 0.14532916
0.14291829 0.083134875 0.061986804 0.2081589 0.031448405 0.047790084 0.003038239 0.009000736
0.11080751 0.13410094 0.15745668 -0.054478083 0.00889261 0.081268564 0.038510643 -0.042237423
-0.19222914 -0.0002029857 0.109023385 0.07703574 -0.1311008 0.03089553 0.07837406 0.09713843
0.15625648 -0.117480814 0.019927563 -0.057665143 -0.13060139 0.060813975 -0.08315669 0.053681318
-0.08796003 -0.021185203 0.031216023 0.0018116701 -0.010010913 -0.073003605 0.011843138 -0.179379
0.2288164 -0.055037305 0.065067776 -0.026287138 -0.056956474 -0.037567314 0.10827865 0.06256798
0.1577121 0.05292086 0.015280679 -0.027682748 0.0026527867 0.074107155 -0.21260564 -0.034934215
-0.034285486 -0.17826758 -0.1520392 -0.0017719509 -0.08868688 0.13725503 -0.03856937 -0.07029852
0.12556109 -0.022264834 -0.1134993 -0.06671658 0.011022329 -0.04509638 -0.02942354 0.057369117
-0.23230708 0.1257702 0.15616365 0.051739987 -0.13013715 -0.03254476 0.0024327035 -0.0024108
-0.027767181 -0.005026484 -0.04502264 -0.18441516 -0.02794938 -0.06535149 0.10443896 0.0048607006
-0.01621994 -0.13060032 -0.053914536 0.098549016 -0.03998408 -0.091602705 -0.1491693 0.056255057
-0.15083984 0.02638405 0.014726767 -0.12721933 -0.109309144 -0.10285664 -0.13892761 -0.09587215
-0.029756721 -0.045517854 -0.014140793 -0.09060425 -0.025713122 -0.10683715 -0.19259955 0.013964949
-0.098582 0.004710706 -0.024182284 -0.042951003 0.08206632 0.08126939 -0.07341531 0.011901532
0.03229196 0.013481902 -0.13946132 -0.27379778 -0.11589407 -0.0051161232 0.028066192 -0.119598284
0.042777196 -0.10497311 0.06820448 -0.0826063 0.0541482 -0.058632705 0.07072921 0.0068550636
-0.083948724 -0.006780837 -0.095453955 0.0042570783 0.030711485 0.11388559 -0.13629574 0.03297276
-0.0692399 0.0948677 -0.042749394 0.06849892 0.070305936 0.058175676 -0.021849435 -0.09303447
0.13746835 0.1096462 -0.05423019 0.06355108 -0.051419448 0.0094337175 0.03375179 -0.03526594
0.058093764 0.11699108 0.101921126 0.04995517 0.050606444 -0.10853831 -0.086390845 0.024114091
0.048669737 0.17175634 0.09510647 -0.12607561 0.025101326 0.050239507 0.05759481 0.04076557
-0.1204761 0.14174095 0.17543538 -0.08897842 -0.06132856 0.0780783 -0.022688944 -0.13152206
-0.03998379 -0.085749075 0.04547552 -0.14991944 -0.08989059 0.07133912 0.005252653 -0.08760619
0.022476863 0.082442015 -0.21979897 0.09404496 -0.11065221 -0.071323946 0.040769976 0.004751335
-0.13659306 0.10443523 -0.095442966 0.15107554 -0.1940174 0.03561811 0.07082724 0.050375674
0.09934253 0.001934028 -0.03902243 -0.17412205 0.14944403 -0.03404644 -0.09923821 0.006539472
-0.027934203 0.0063882237 -0.11026913 0.06653849 -0.019659925 -0.10031582 0.15067801 0.08840647
-0.030355657 0.028750533 -0.14212075 0.020807242 0.046696547 0.017254483 0.11418987 0.13592577
-0.041599248 -0.16711679 0.0020681277 0.08042202 -0.08823557 0.072946675 0.069688186 -0.06889427
0.1060754 0.029982518 -0.10175923 -0.22320384 -0.110917896 -0.08116742 -0.13331246 -0.16163298
00000000: 1f71 323e 28e2 dabc ea05 d9bd 8045 48bd
00000010: 130c 43bd 3d4a c23d 4ece 083d 2bd1 143e
00000020: 2c59 123e 9e42 aa3d e0e5 7d3d 9b27 553e
00000030: 0bd0 003d 89bf 433d 311d 473b d377 133c
00000040: 0cef e23d c251 093e 533c 213e 6924 5fbd
00000050: 4fb2 113c 2270 a63d 56bd 1d3d 2601 2dbd
00000060: b7d7 44be 8fd8 54b9 a747 df3d eac4 9d3d
00000070: 4a3f 06be 9f18 fd3c 9482 a03d 83f0 c63d
00000080: b301 203e c899 f0bd 213f a33c 4932 6cbd
00000090: 5fbc 05be 1318 793d 0e4e aabd f1e0 5b3d
000000a0: 6324 b4bd 978c adbc bfb8 ff3c 9075 ed3a
000000b0: d004 24bc ea82 95bd b909 423c 21af 37be
000000c0: d94e 6a3e cc6e 61bd 4142 853d 2058 d7bc
000000d0: 314b 69bd 2fe0 19bd 32c1 dd3d a423 803d
000000e0: 487f 213e 8bc3 583d d05b 7a3c eec6 e2bc
000000f0: 60da 2d3b 7ec5 973d 4bb5 59be 2e17 0fbd
00000100: f06e 0cbd c78b 36be 2ab0 1bbe ce40 e8ba
00000110: 78a1 b5bd 958c 0c3e eafa 1dbd acf8 8fbd
00000120: 1693 003e be64 b6bc 5272 e8bd b4a2 88bd
00000130: 0097 343c fbb6 38bd a309 f1bc e1fb 6a3d
00000140: e8e1 6dbe e7c9 003e 5de9 1f3e 4fed 533d
00000150: ac42 05be a74d 05bd fe6d 1f3b 83fe 1dbb
00000160: 0078 e3bc 34b5 a4bb a969 38bd 54d7 3cbe
00000170: 19f6 e4bc 01d7 85bd 18e4 d53d 8346 9f3b
00000180: aedf 84bc 17bc 05be 7dd5 5cbd 11d4 c93d
00000190: 59c6 23bd 339a bbbd d6bf 18be b46b 663d
000001a0: c275 1abe 5d23 d83c 8a48 713c c945 02be
000001b0: 79dd dfbd 81a6 d2bd 0a43 0ebe 9e58 c4bd
000001c0: 5ec4 f3bc ee70 3abd c9ae 67bc b98e b9bd
000001d0: 53a4 d2bc 70cd dabd d138 45be 3ecd 643c
000001e0: 5ce5 c9bd 445c 9a3b ed19 c6bc 64ed 2fbd
000001f0: 6312 a83d 9170 a63d c45a 96bd a5fe 423c
00000200: 9344 043d 32e3 5c3c f3ce 0ebe 392f 8cbe
00000210: df59 edbd 27a5 a7bb 12eb e53c f2ef f4bd
00000220: 2437 2f3d 24fc d6bd caae 8b3d 7e2d a9bd
00000230: 81ca 5d3d d928 70bd 7ada 903d 71a0 e03b
00000240: 4fed abbd c931 debb 5d7d c3bd f67e 8b3b
00000250: a796 fb3c d93c e93d 1c91 0bbe 720e 073d
00000260: a6cd 8dbd ff49 c23d fd19 2fbd 2949 8c3d
00000270: 8ffc 8f3d 9e49 6e3d 96fd b2bc db88 bebd
00000280: 81c4 0c3e 308e e03d 7a20 5ebd 1227 823d
00000290: 339d 52bd e18f 1a3c 513f 0a3d 0573 10bd
000002a0: baf3 6d3d 0599 ef3d 06bc d03d cb9d 4c3d
000002b0: b448 4f3d 5549 debd afed b0bd ea8a c53c
000002c0: eb59 473d e5e0 2f3e 2ec7 c23d f719 01be
000002d0: 4ca1 cd3c f1c7 4d3d 89e8 6b3d ccf9 263d
000002e0: 2cbc f6bd 8a24 113e 55a5 333e 513a b6bd
000002f0: a833 7bbd 84e7 9f3d 2ade b9bc b8ad 06be
00000300: 0bc6 23bd 369d afbd 8a44 3a3d 7b84 19be
00000310: 8f18 b8bd 3f1a 923d 721e ac3b e06a b3bd
00000320: 6621 b83c 5cd7 a83d fb12 61be a59a c03d
00000330: a09d e2bd 4a12 92bd 6bfe 263d 16b1 9b3b
00000340: 0ddf 0bbe 23e2 d53d 9a77 c3bd 8cb3 1a3e
00000350: 7fac 46be 4ce4 113d df0d 913d b956 4e3d
00000360: 1974 cb3d 367f fd3a fcd5 1fbd 0d4d 32be
00000370: db07 193e 4874 0bbd 673d cbbd 1149 d63b
00000380: 45d6 e4bc 4e54 d13b c8d4 e1bd 5545 883d
00000390: da0d a1bc 6172 cdbd 564b 1a3e 740e b53d
000003a0: 6dac f8bc 3d86 eb3c 1a88 11be f373 aa3c
000003b0: e144 3f3d 4659 8d3c 61dc e93d 2030 0b3e
000003c0: f963 2abd aa20 2bbe 6d89 073b 4db4 a43d
000003d0: dab4 b4bd 1165 953d aeb8 8e3d 7018 8dbd
000003e0: 0f3e d93d e69d f53c 2567 d0bd 8c8f 64be
000003f0: ec28 e3bd 1b3b a6bd 1083 08be 1e83 25be

network.4.bias f4 [16]
0.035279565 0.093061425 -0.03063573 0.0059310705 0.19325978 0.014866012 0.17438023 0.061044876
0.07204678 -0.20367283 0.1462882 0.031901974 -0.155602 -0.04461191 -0.086294934 -0.10922585
00000000: 4e81 103d fd96 be3d c8f7 fabc 6d59 c23b
00000010: e4e5 453e 9390 733c bb90 323e 310a 7a3d
00000020: 438d 933d 9c8f 50be 93cc 153e a5ab 023d
00000030: 2156 1fbe faba 36bd 66bb b0bd cdb1 dfbd

network.6.weight f4 [16]
0.9082957 0.8791332 1.021576 0.8675401 0.91397995 0.7997363 0.9667025 0.82107604
0.90485674 0.8645052 0.9090014 0.86233985 0.84466416 0.8695959 0.97926795 0.8615891
00000000: 1186 683f e00e 613f 01c3 823f 1c17 5e3f
00000010: 97fa 693f 85bb 4c3f d179 773f 0a32 523f
00000020: b1a4 673f 3650 5d3f 51b4 683f 4ec2 5c3f
00000030: e93b 583f d69d 5e3f 4eb1 7a3f 1a91 5c3f

network.6.bias f4 [16]
0.045694277 -0.04880202 0.055294245 -0.012348526 0.01799644 0.044628344 0.04894974 0.0009023929
-0.051129594 0.048694495 0.04426547 -0.046579137 0.04459005 0.051560543 -0.058818422 -0.049011886
00000000: ec29 3b3d a0e4 47bd 387c 623d 7951 4abc
00000010: 456d 933c 36cc 363d 867f 483d 908e 6c3a
00000020: 446d 51bd e173 473d b64f 353d c4c9 3ebd
00000030: 0ea4 363d 2631 533d 96eb 70bd b0c0 48bd

network.6.running_mean f4 [16]
0.32103556 0.27851978 0.26304758 0.2905395 0.3888864 0.26674932 0.33906227 0.30217665
0.46156815 0.10453046 0.46803555 0.33249387 0.19078282 0.27840364 0.23943621 0.20887437
00000000: c65e a43e 259a 8e3e 2cae 863e 98c1 943e
00000010: 1e1c c73e 5e93 883e 9299 ad3e e6b6 9a3e
00000020: a952 ec3e 1114 d63d 5ba2 ef3e a33c aa3e
00000030: 925c 433e ec8a 8e3e c42e 753e 2ae3 553e

network.6.running_var f4 [16]
0.42249316 0.164981 0.1681771 0.120214604 0.18757969 0.23905058 0.16617039 0.14018625
0.36150923 0.047779433 0.30889326 0.26411408 0.17645809 0.24292667 0.17863508 0.11971679
00000000: 0651 d83e c7f0 283e 9e36 2c3e 1333 f63d
00000010: e414 403e adc9 743e 9228 2a3e fc8c 0f3e
00000020: bd17 b93e 5eb4 433d 4227 9e3e f639 873e
00000030: 6eb1 343e c5c1 783e 1dec 363e 142e f53d

network.8.weight f4 [1, 16]
0.09393887 -0.10766727 0.09195973 -0.055151507 0.06892815 0.022863042 0.09851699 0.047800183
-0.15342325 0.04219459 0.16164501 -0.090351485 0.028705616 0.10667156 -0.089236096 -0.07520139
00000000: 0663 c03d a880 dcbd 6255 bc3d 8ce6 61bd
00000010: 342a 8d3d 464b bb3c 47c3 c93d 20ca 433d
00000020: fc1a 1dbe 3cd4 2c3d 4586 253e 330a b9bd
00000030: 0a28 eb3c 9e76 da3d 6ac1 b6bd 3003 9abd
